The Digit Classifier/CNN_based/CNN_MNIST.pth (torch_old, 744289 bytes, 10 tensors)

weight f4 [32, 1, 5, 5]
-0.003945951 0.012596261 0.086526014 -0.13501836 0.05240592 0.08160776 0.08548415 -0.30262896
0.034534648 -0.37270755 -0.024526441 0.12283472 -0.12729067 0.026974646 -0.39366958 -0.11608366
0.20537023 -0.065151475 0.027806886 -0.02350136 -0.15370148 -0.06233456 -0.15803513 0.015387158
0.020833211 -0.59195775 -0.052554403 0.5525327 0.34184456 -0.08302519 -0.24143632 -1.5415983
-0.93276 0.027399376 0.20328058 0.43303356 -0.008296775 -0.83736104 -1.6696221 -1.2383934
0.11748443 0.51235837 0.42810163 -0.25972885 -1.3894839 -0.0873008 0.5679702 0.57680607
0.46990168 -0.34659082 0.21133275 0.06376207 -0.18909302 -0.60066885 0.061225828 0.44337708
-0.060162157 -0.7443632 -0.7806983 -0.44591486 0.15531053 0.10460431 -0.35815865 -0.07666726
0.23315577 0.123420246 0.41087282 0.3791156 0.20897402 0.59930253 0.236302 0.4754314
0.012450343 -0.12208965 0.27778655 0.33438733 0.28342846 -0.5826192 -0.9854296 -0.89766455
-0.061985195 0.509026 0.40527356 -1.7858758 -0.4425168 0.2134104 0.7716868 -0.45006114
-2.691003 0.13782813 0.18615209 0.34682506 -1.9812841 -0.19585694 0.36271873 -0.0665686
-0.9535622 -1.6034523 0.42433962 0.28033745 0.09899754 -0.07954284 0.054772023 -0.2223024
-0.015470585 -0.1274837 -0.15925407 -0.2457247 -0.13761772 0.0760281 -0.1318127 0.122912526
-0.13670929 0.06236023 -0.20882691 -0.11208382 -0.15241049 0.030114455 -0.06600677 0.16085067
-0.08947783 0.15453467 -0.11923026 0.05944778 -0.17334118 -0.7117604 -0.65317595 0.39914447
0.70828795 -0.23972033 -0.25002864 -1.1922028 -0.7964596 0.6617204 0.024857527 0.3868342
-0.7870445 -1.4459897 0.092534706 0.3982918 -0.13491452 -0.12602808 -0.83870804 -0.6026951
-0.22210632 -0.016286384 0.19388986 -0.016000114 -0.70576394 -1.2519027 0.08646927 -0.103046246
-0.278957 -0.27660623 -1.2739421 -0.5551825 0.24339768 0.14886169 -0.44936016 -0.8786489
-1.2000417 0.18941739 0.1982818 0.08262735 -1.1768391 -2.100577 0.47370774 0.84447014
0.13030016 -0.9093723 -1.3331343 -0.15909149 0.58145016 -0.05580079 -0.24878708 -0.031335548
0.09692513 0.11687479 -0.104112014 -0.060428627 0.13422419 -0.0703779 0.023264246 -0.3324443
-0.18458484 -0.2622389 -0.3301946 0.0038426933 0.016936105 0.09198045 -0.29246488 -0.18194516
0.012242137 0.11305097 -0.008263508 -0.029443128 0.07257897 -0.1561069 -0.118698485 -0.08072415
-0.5481066 -0.33400306 -0.39148656 -0.39055693 0.4820868 -1.328251 -1.5117106 -0.65315855
-0.32786167 0.7311147 -0.5504828 -2.0778909 -0.7477311 -0.2573899 0.5936093 -0.9183357
-0.443236 -1.6026229 -0.26894656 0.38871032 -0.023547225 0.0125499945 -0.20956862 -0.98825055
-0.80063534 -0.12479833 0.19542001 0.04829942 0.028560597 -0.67810714 0.2744592 -0.06278982
0.40630898 0.8147131 0.46036676 -0.2678016 -0.08232586 -0.03899814 0.13592002 0.5070232
-0.53190494 -1.1778108 -1.2247314 -0.069332995 0.44478375 0.42373204 0.30274037 -0.57191914
-1.3551937 -1.1605262 0.46608275 0.43430898 0.19590688 0.24833895 0.77364355 -0.30925924
00000000: 094d 81bb 8c60 4e3c 8d34 b13d 4142 0abe
00000010: 97a7 563d f821 a73d 5012 af3d 2ff2 9abe
00000020: 3474 0d3d 86d3 bebe adeb c8bc c590 fb3d
00000030: 7c58 02be eff9 dc3c 0f8f c9be 45bd edbd
00000040: 934c 523e 236e 85bd 44cb e33c ed85 c0bc
00000050: ec63 1dbe 8652 7fbd f6d3 21be 6b1a 7c3c
00000060: 69aa aa3c 8b8a 17bf 4943 57bd c872 0d3f
00000070: 4006 af3e 1c09 aabd 153b 77be 1853 c5bf
00000080: 5cc9 6ebf a874 e03c c928 503e 93b6 dd3e
00000090: 32ef 07bc 4b5d 56bf 2db6 d5bf ad83 9ebf
000000a0: ad9b f03d eb29 033f 2330 db3e 2efb 84be
000000b0: 9cda b1bf c3ca b2bd 7f66 113f 90a9 133f
000000c0: f496 f03e 5a74 b1be 9d67 583e b095 823d
000000d0: 9aa1 41be 6fc5 19bf efc7 7a3d 5202 e33e
000000e0: 986c 76bd 968e 3ebf d8db 47bf f44e e4be
000000f0: b909 1f3e c93a d63d 9260 b7be b903 9dbd
00000100: 63c0 6e3e c1c3 fc3d ec5d d23e 711b c23e
00000110: 49fd 553e e46b 193f 27f9 713e bf6b f33e
00000120: 86fc 4b3c 230a fabd 0a3a 8e3e d134 ab3e
00000130: 891d 913e 8826 15bf 1d45 7cbf 58cd 65bf
00000140: 30e4 7dbd 874f 023f 0480 cf3e 9497 e4bf
00000150: 9091 e2be 4288 5a3e 448d 453f 6a6e e6be
00000160: 6539 2cc0 d122 0d3e a79e 3e3e 0e93 b13e
00000170: b89a fdbf b98e 48be 45b6 b93e 1e55 88bd
00000180: a71c 74bf ed3d cdbf 0b43 d93e 6488 8f3e
00000190: 39bf ca3d 5be7 a2bd a158 603d 3ea3 63be
000001a0: 5678 7dbc 168b 02be 8013 23be 419f 7bbe
000001b0: a9eb 0cbe 9fb4 9b3d e9f9 06be 90b9 fb3d
000001c0: 85fd 0bbe 716d 7f3d b9d6 55be 348c e5bd
000001d0: 7f11 1cbe 97b2 f63c 8f2e 87bd 0ab6 243e
000001e0: 2740 b7bd 563e 1e3e ff2e f4bd 847f 733d
000001f0: 5a80 31be ee35 36bf 8a36 27bf aa5c cc3e
00000200: 5c52 353f 3f79 75be c103 80be 1a9a 98bf
00000210: c7e4 4bbf 8266 293f 03a2 cb3c 220f c63e
00000220: c07b 49bf 3116 b9bf d682 bd3d e7ec cb3e
00000230: 0827 0abe 810d 01be 92b5 56bf 3a4a 1abf
00000240: d76f 63be 066b 85bc 108b 463e ac12 83bc
00000250: f2ac 34bf 593e a0bf cd16 b13d e909 d3bd
00000260: 74d3 8ebe 559f 8dbe 8910 a3bf 7120 0ebf
00000270: 3e3d 793e 336f 183e 8912 e6be 22ef 60bf
00000280: f79a 99bf a2f6 413e 620a 4b3e 8738 a93d
00000290: aaa2 96bf db6f 06c0 d289 f23e 322f 583f
000002a0: 686d 053e a0cc 68bf 25a4 aabf e1e8 22be
000002b0: ebd9 143f 5f8f 64bd 0ac2 7ebe b459 00bd
000002c0: af80 c63d 0d5c ef3d ae38 d5bd 0284 77bd
000002d0: 1172 093e 4a22 90bd a994 be3c 2436 aabe
000002e0: cf03 3dbe 2d44 86be 440f a9be b2d5 7b3b
000002f0: 96bd 8a3c 3f60 bc3d f5bd 95be d54f 3abe
00000300: 3f93 483c 4487 e73d aa63 07bc b732 f1bc
00000310: 48a4 943d 7dda 1fbe 3118 f3bd b452 a5bd
00000320: b750 0cbf 7302 abbe ed70 c8be 14f7 c7be
00000330: 15d4 f63e 2104 aabf bc7f c1bf 6635 27bf
00000340: 7cdd a7be 552a 3b3f 71ec 0cbf 2afc 04c0
00000350: 4e6b 3fbf 9cc8 83be c7f6 173f 0c18 6bbf
00000360: d4ef e2be bf22 cdbf 5db3 89be 0a05 c73e
00000370: 1ce6 c0bc 7e9e 4d3c 2899 56be fdfd 7cbf
00000380: 70f6 4cbf 4496 ffbd 2f1c 483e 9dd5 453d
00000390: eaf7 e93c 6e98 2dbf eb85 8c3e f397 80bd
000003a0: bb07 d03e 0a91 503f 31b5 eb3e 4b1d 89be
000003b0: 769a a8bd 83bc 1fbd 9e2e 0b3e 46cc 013f
000003c0: ec2a 08bf 81c2 96bf 00c4 9cbf 75fe 8dbd
000003d0: b2ba e33e 68f3 d83e c900 9b3e 4b69 12bf
000003e0: fd76 adbf 1f8c 94bf 66a2 ee3e bf5d de3e
000003f0: d09b 483e 914c 7e3e 810d 463f 3a57 9ebe

bias f4 [32]
-0.4329648 -0.15669318 -1.2889212 -0.4900303 -0.2211707 -0.46647578 -0.11297338 -0.32331315
-0.08157544 -0.54955053 -0.45874587 -0.637699 -0.28903034 -0.27073717 -0.48992553 -0.3333534
-0.43314546 -0.24435599 -0.6335703 -0.27135 -0.44185573 -0.04949241 -0.1603507 -0.63939774
-0.13242258 -0.66223407 -0.043193124 -0.1808195 -0.062673405 -0.23151249 -0.040075336 -0.3732481
00000000: 90ad ddbe 2d74 20be 5ffb a4bf 40e5 fabe
00000010: 927a 62be ead5 eebe 965e e7bd 4d89 a5be
00000020: 0611 a7bd 58af 0cbf bde0 eabe 3e40 23bf
00000030: c9fb 93be 109e 8abe 85d7 fabe 4cad aabe
00000040: 3ec5 ddbe 7538 7abe aa31 22bf 63ee 8abe
00000050: ea3a e2be 8eb8 4abd f932 24be 92af 23bf
00000060: c999 07be 2c88 29bf 46eb 30bd bf28 39be
00000070: ea5a 80bd 9c11 6dbe 0926 24bd 601a bfbe

weight f4 [64, 32, 5, 5]
-0.19306634 -0.12869756 -0.19997492 -0.051829148 -0.099411204 -0.18741213 -0.034158245 -0.06882367
-0.05277546 -0.07834594 -0.21459703 -0.009599711 -0.0934886 -0.05681012 -0.04523287 -0.31081975
-0.013093162 -0.11260215 -0.0490749 -0.048982363 -0.31637886 -0.11636232 -0.12241691 -0.14363708
-0.11706438 -0.15899228 -0.17019333 -0.7456856 -0.41809607 -0.55717826 -0.15103011 -0.1358216
-0.07587871 -0.53904146 -0.45274824 -0.5751371 -0.20439295 -0.41812953 -0.66522944 -0.8459831
-0.45332745 -0.053824734 -0.21583475 -0.47874925 -0.56200856 -0.62786794 -0.31935498 0.21517733
-0.31188688 -0.48143545 0.17377122 0.15125592 -0.18511838 -1.0574559 -0.427186 0.08480473
-0.09933651 -0.55486435 -0.58554995 -0.3180384 -0.15140954 -0.16088197 -0.26827928 -0.18377246
-0.42128557 -0.5607291 -0.21339218 -0.3459621 -0.05956964 -0.67971855 -0.75285304 -0.6966873
-0.44332027 -0.3662778 -0.4676516 -0.3814834 -0.52731586 -0.24488047 -0.82292306 -0.5877373
-0.25077316 -0.12891996 -0.53998893 -0.30954605 -0.1988612 -0.2083959 -0.26482573 -0.2728127
-0.47323215 -0.056176383 -0.25855526 -0.8565431 -0.1505104 -0.534837 0.677304 -0.39393833
-0.7707674 -0.27836767 -0.6230979 0.05872463 -0.085942164 -0.025080994 -0.06281283 -0.037176613
-0.012260176 -0.041383903 -0.024412889 -0.033683784 0.015563808 0.06069444 -0.03783917 -0.05599519
0.089280665 0.039781872 0.02242438 -0.03327567 0.04870315 0.10258389 0.015353049 -0.08392799
0.0052102497 0.057032924 0.020937238 -0.051926907 0.06402939 -0.24206166 -0.25594547 -0.4271237
-0.12900013 -0.42376062 -0.1159747 -0.27394286 -0.31932414 -0.21870197 -0.2003447 -0.30291492
-0.17603871 -0.2440229 -0.21547036 -0.12161491 -0.5725237 -0.4705088 -0.2165471 -0.11508311
-0.19145602 -0.2771944 -0.67154133 0.0056796772 -0.4063317 -0.333006 -0.07986184 -0.21673268
-0.28945082 -0.11809839 -0.40309945 -0.2818088 -0.5177078 -0.29997638 -0.27320865 -0.43444014
-0.2953763 -0.49486396 -0.004437119 -0.38272086 -0.5951516 -0.29800522 -0.22406842 -0.25891015
-0.75042456 -0.6426128 -0.2809338 0.057022043 -0.43414852 -0.60498047 -0.41890034 -0.042855848
-0.064260125 -0.059452266 -0.10390431 -0.084673665 -0.029492112 -0.11189811 -0.016102413 -0.04818493
-0.07886556 -0.08044227 -0.11149477 0.03346161 -0.05118816 -0.12559883 -0.12039163 -0.021666812
-0.0233328 0.05788279 -0.0015852615 -0.056968927 -0.05544862 -0.044962976 -0.02609792 -0.054819934
-0.036817923 -0.52582216 0.0026408057 -0.20958906 -0.41970184 -0.21468604 -0.12415147 -0.22322412
-0.15774828 -0.48074406 -0.33221722 -0.020423515 -0.266368 -0.25353703 -0.22558445 -0.47673386
-0.3042403 -0.17767526 -0.052894123 -0.06368044 -0.611563 -0.450367 -0.1795955 -0.31991398
-0.11257178 -0.1431292 -0.2513545 -0.3688406 -0.29245475 -0.24625178 -0.24284236 -0.46861333
-0.22868678 -0.33642855 -0.17385903 -0.3782989 -0.2921611 -0.43894398 -0.30973187 -0.5259885
-0.07025465 -0.041577317 -0.26649746 -0.10153988 -0.515466 -0.018455109 -0.009819612 -0.23964886
-0.45460185 -0.36336878 -0.60430646 -0.62397695 -0.3630729 -0.4933628 -0.42825395 -0.31184947
00000000: 2fb3 45be 4bc9 03be 3ac6 4cbe cd4a 54bd
00000010: 1a98 cbbd f7e8 3fbe 84e9 0bbd 6df3 8cbd
00000020: 152b 58bd d673 a0bd 53bf 5bbe 1b48 1dbc
00000030: f376 bfbd bab1 68bd 1a46 39bd c423 9fbe
00000040: b484 56bc f59b e6bd c302 49bd bba1 48bd
00000050: 69fc a1be 5e4f eebd b8b5 fabd 9915 13be
00000060: 73bf efbd dfce 22be 2947 2ebe 40e5 3ebf
00000070: b010 d6be 3ca3 0ebf a3a7 1abe d114 0bbe
00000080: 4c66 9bbd 9ffe 09bf 9ece e7be 2f3c 13bf
00000090: 634c 51be 1315 d6be 7a4c 2abf 5992 58bf
000000a0: 891a e8be 5377 5cbd c903 5dbe 9f1e f5be
000000b0: cbdf 0fbf f4bb 20bf 7f82 a3be 7257 5c3e
000000c0: a3af 9fbe b57e f6be 15f1 313e d5e2 1a3e
000000d0: ac8f 3dbe b75a 87bf 20b8 dabe 1aae ad3d
000000e0: f170 cbbd 970b 0ebf 9ae6 15bf eed5 a2be
000000f0: 1a0b 1bbe 3ebe 24be e75b 89be d92e 3cbe
00000100: beb2 d7be f18b 0fbf 7b83 5abe f221 b1be
00000110: 4bff 73bd 0902 2ebf faba 40bf 195a 32bf
00000120: e0fa e2be c488 bbbe 0870 efbe cb51 c3be
00000130: 2cfe 06bf f2c1 7abe 16ab 52bf f475 16bf
00000140: 5765 80be 9803 04be b73c 0abf d27c 9ebe
00000150: 45a2 4bbe bc65 55be 3d97 87be 1bae 8bbe
00000160: 7c4b f2be 3519 66bd 5b61 84be 6946 5bbf
00000170: 661f 1abe 14eb 08bf cc63 2d3f 49b2 c9be
00000180: 0351 45bf 3586 8ebe 5883 1fbf 3d89 703d
00000190: 7202 b0bd a876 cdbc 03a4 80bd 8146 18bd
000001a0: e8de 48bc 2b82 29bd 8afd c7bc 02f8 09bd
000001b0: 58ff 7e3c bc9a 783d 3ffd 1abd 365b 65bd
000001c0: c8d8 b63d 51f2 223d 55b3 b73c 124c 08bd
000001d0: f47c 473d 8117 d23d 5b8b 7b3c 70e2 abbd
000001e0: beba aa3b 5b9b 693d 9284 ab3c 4fb1 54bd
000001f0: d721 833d 03df 77be 490b 83be f5af dabe
00000200: 9c18 04be 27f7 d8be 2584 edbd 3d42 8cbe
00000210: 747e a3be 69f3 5fbe 2927 4dbe aa17 9bbe
00000220: 7e43 34be 24e1 79be 43a4 5cbe 3d11 f9bd
00000230: ea90 12bf 88e6 f0be 86be 5dbe b2b0 ebbd
00000240: 0c0d 44be 6dec 8dbe 22ea 2bbf 961c ba3b
00000250: b50a d0be c37f aabe 9b8e a3bd 2cef 5dbe
00000260: e632 94be 92dd f1bd 0d63 cebe 3e49 90be
00000270: 8088 04bf 8196 99be 01e2 8bbe f06e debe
00000280: 903b 97be cf5e fdbe 4065 91bb fdf3 c3be
00000290: db5b 18bf 2494 98be 3172 65be df8f 84be
000002a0: d31b 40bf 4682 24bf 8ed6 8fbe f28f 693d
000002b0: b748 debe 00e0 1abf 1b7a d6be 9d89 2fbd
000002c0: d09a 83bd 3884 73bd c8cb d4bd 6369 adbd
000002d0: 7199 f1bc d62a e5bd 35e9 83bc 905d 45bd
000002e0: 4484 a1bd ebbe a4bd 5f57 e4bd 0b0f 093d
000002f0: adaa 51bd fb9c 00be e38f f6bd 997e b1bc
00000300: 6e24 bfbc 8116 6d3d 8dc8 cfba 4058 69bd
00000310: 181e 63bd 192b 38bd 4ecb d5bc de8a 60bd
00000320: 64ce 16bd 489c 06bf 5e11 2d3b 849e 56be
00000330: 29e3 d6be a8d6 5bbe 2043 febd dd94 64be
00000340: c488 21be 1624 f6be 6018 aabe 374f a7bc
00000350: 6361 88be 9bcf 81be 9cff 66be 7616 f4be
00000360: 62c5 9bbe 81f0 35be 82a7 58bd e46a 82bd
00000370: 658f 1cbf 8196 e6be e2e7 37be c4cb a3be
00000380: 098c e6bd 7690 12be 89b1 80be add8 bcbe
00000390: a1bc 95be 6d29 7cbe abab 78be 16ee efbe
000003a0: de2c 6abe 5d40 acbe 1a08 32be 65b0 c1be
000003b0: 2496 95be 44bd e0be 2d95 9ebe 2fa7 06bf
000003c0: ace1 8fbd fa4c 2abd 5b72 88be 24f4 cfbd
000003d0: 94f5 03bf 2b2f 97bc 70e2 20bc 8366 75be
000003e0: 93c1 e8be 790b babe d4b3 1abf f4bc 1fbf
000003f0: b1e4 b9be 0d9a fcbe 1a44 dbbe bcaa 9fbe

bias f4 [64]
-1.0683724 -0.055523094 0.32232118 -0.11955096 -0.27282813 -0.32044315 -0.04601469 -0.04426268
-0.1572204 -0.051184922 -0.038654137 -1.2703116 -0.27045214 -0.93871605 -0.2076821 -0.034816593
-0.0580967 -0.05414344 -0.5783879 -0.55266714 -0.06893921 -0.33658734 -0.071907446 -0.04392181
-0.66065824 -0.631626 -0.17093131 -1.402091 -0.012615387 -0.681733 0.038045485 -0.55331516
-0.10528986 -0.026314255 -0.22363563 -0.63963693 -0.45815206 -0.14961332 -0.39189523 -0.028888967
-0.024247956 -0.05643988 -0.23335923 -0.06371505 -0.270619 -0.058763277 -0.08080062 -0.8001328
-0.022392496 -0.6390462 -0.5829381 -0.64859486 -1.4396521 -0.24570604 -0.2856344 -0.052113544
-0.124585785 -0.050598405 -0.3692235 -0.069564275 -0.13987309 -0.7018615 -0.05320416 -0.41064173
00000000: 6dc0 88bf 2f6c 63bd 4807 a53e 22d7 f4bd
00000010: 21b0 8bbe 2011 a4be e679 3cbd c94c 35bd
00000020: 62fe 20be 48a7 51bd cd53 1ebd 9299 a2bf
00000030: b478 8abe b24f 70bf 9eaa 54be d89b 0ebd
00000040: cef6 6dbd 83c5 5dbd 3b11 14bf 987b 0dbf
00000050: 0030 8dbd 2d55 acbe 3644 93bd 5be7 33bd
00000060: e620 29bf 3eb2 21bf 9e08 2fbe b877 b3bf
00000070: c5b0 4ebc 0e86 2ebf 95d5 1b3d 10a6 0dbf
00000080: 36a2 d7bd fe90 d7bc bd00 65be 3fbf 23bf
00000090: e892 eabe 3c34 19be 7ea6 c8be 8ea8 ecbc
000000a0: a6a3 c6bc 812d 67bd b9f5 6ebe 097d 82bd
000000b0: 938e 8abe c3b1 70bd cc7a a5bd 81d5 4cbf
000000c0: 7870 b7bc 8898 23bf 6e3b 15bf 500a 26bf
000000d0: 8546 b8bf 5d9a 7bbe ac3e 92be 0375 55bd
000000e0: d526 ffbd 4640 4fbd dd0a bdbe b777 8ebd
000000f0: e43a 0fbe 32ad 33bf 9bec 59bd a23f d2be

weight f4 [120, 1024]
0.02552396 0.56562006 0.003916619 0.32955414 -0.571628 -0.28189597 -0.0342766 0.21365693
-0.15990695 -0.2592311 0.15608817 -0.10213906 -0.32032686 -0.23305482 0.32705486 -0.35376236
-0.051434036 0.040930144 0.080440894 -0.070409946 -0.05141869 0.040356204 0.078567974 -0.050454464
-0.017657682 -0.07097385 0.055152237 -0.03337762 -0.026487462 0.056992795 0.062411875 0.043378778
0.40962508 0.5606666 -0.44307804 0.517482 -1.1137805 -0.2724877 -0.4594278 0.121973746
-1.878944 -1.0561631 -0.022871787 -0.5342332 0.32710394 0.29805064 0.17004095 0.40168947
-0.8061127 -0.37801352 -0.8609275 -0.072852686 -0.7811944 -0.7218875 0.35544342 0.35756493
-1.0117141 -0.6713226 -0.31583786 -0.5989603 -0.7171931 -0.5093677 -0.31899562 -0.05421018
-0.1342035 0.3991831 -0.2621955 -0.09280291 0.0083067985 0.33653942 -0.024354568 -0.18022688
0.08460405 -0.19780408 0.2063436 -0.088430196 -0.18737024 -0.30304137 0.5458481 0.06552633
1.053654 -0.4321138 -0.49501285 0.17269547 0.040956695 -0.755331 -0.37548542 0.21597965
0.011736361 0.6256842 -0.4333102 -0.044521965 0.1280096 0.04756408 0.37217525 -0.57966715
0.01381011 -0.023134697 -0.02519277 0.02116402 0.092709854 0.025391651 -0.025066035 0.066172294
-0.070667475 -0.039716706 0.048215017 0.04329524 -0.05135858 -0.041814696 0.038279235 -0.060209908
-0.030351993 -0.074452534 0.047073733 -0.03285214 -0.035558533 -0.0787508 0.06546283 0.051662356
-0.04226048 -0.06469595 0.087243944 0.06020603 -0.045538846 -0.00974081 0.031052068 0.04433908
-0.0830537 -0.03555451 -0.08327907 0.07451666 0.082991034 0.056508705 -0.060490657 0.072606854
-0.020072076 -0.052216105 0.0847547 -0.08415455 0.13226248 0.18049452 0.05734501 -0.056953028
0.021114403 0.039798435 0.026872229 -0.0038749736 0.03332878 0.029969236 0.044973347 -0.063616686
-0.060773727 0.042778395 0.0666282 -0.019644348 0.024335632 -0.055486128 0.06975084 -0.058603067
0.035498723 0.03552869 -0.07944614 -0.053688686 -0.091817655 0.010606569 -0.049852315 -0.04730274
-0.022621328 0.051743362 0.04058151 -0.064971834 -0.048436277 -0.06420021 0.04876142 -0.098373026
-0.10119222 -0.7087509 -0.552247 0.5175623 -0.12670368 -0.23954481 0.0029715146 -0.18184727
0.5412641 1.0285134 0.60869473 0.13450089 -0.07676628 -0.18917583 -0.9905672 -0.8559117
0.52941394 0.06779629 -0.038841285 -0.15766917 0.53398573 0.08711474 0.20686087 0.42737702
0.1633651 -0.008853004 0.056928996 0.33684206 -0.17464375 -0.09131435 -0.15001471 0.01576501
0.31401968 0.6678451 0.42066443 0.2615407 0.057119347 -0.42441607 -0.18939005 -0.13015057
0.99835694 0.1401707 0.02664077 -0.31401306 0.83076453 0.14009555 0.19295163 -0.33893135
-0.26016676 0.053091306 -0.3553224 0.39287683 0.019953877 0.34311262 -0.20001307 0.022572655
-0.057470158 -0.2527753 -0.4498677 -0.13295828 -0.52389836 -0.45598462 -0.058581132 0.44428405
0.02464052 0.037465613 0.026228037 -0.07428632 0.03246208 0.06575122 0.026937276 -0.025434302
-0.099243686 0.05983037 0.06997516 -0.06408463 -0.08421775 -0.052712638 0.083876945 0.13710634
00000000: a017 d13c 7acc 103f fb56 803b 52bb a83e
00000010: 3656 12bf ab54 90be 9f65 0cbd e2c8 5a3e
00000020: a6be 23be f0b9 84be 94d5 1f3e 492e d1bd
00000030: e201 a4be eca5 6ebe bc73 a73e 5720 b5be
00000040: 7fac 52bd 5ea6 273d 32be a43d 1733 90bd
00000050: 679c 52bd 8c4c 253d 3fe8 a03d 57a9 4ebd
00000060: d8a6 90bc bd5a 91bd 50e7 613d f9b6 08bd
00000070: 3cfc d8bc 4771 693d 98a3 7f3d f2ad 313d
00000080: 61ba d13e d987 0f3f 20db e2be b379 043f
00000090: 5c90 8ebf 8283 8bbe 1f3a ebbe 5fcd f93d
000000a0: 3d81 f0bf 5a30 87bf 9d5d bbbc 82c3 08bf
000000b0: 2b7a a73e 189a 983e 371f 2e3e 3eaa cd3e
000000c0: 675d 4ebf fd8a c1be bf65 5cbf ca33 95bd
000000d0: 5bfc 47bf 9fcd 38bf aefc b53e c012 b73e
000000e0: d97f 81bf ccdb 2bbf 80b5 a1be 7655 19bf
000000f0: f899 37bf ec65 02bf 6553 a3be 7e0b 5ebd
00000100: a46c 09be ba61 cc3e 7d3e 86be 740f bebd
00000110: 3d19 083c e54e ac3e 3b83 c7bc 658d 38be
00000120: e344 ad3d 278d 4abe bd4b 533e e41a b5bd
00000130: fcdd 3fbe 3d28 9bbe b3bc 0b3f ab32 863d
00000140: 22de 863f 053e ddbe 5372 fdbe 15d7 303e
00000150: 35c2 273d 5f5d 41bf a03f c0be c529 5d3e
00000160: de49 403c d72c 203f d6da ddbe aa5c 36bd
00000170: f314 033e 8ed2 423d c18d be3e 1165 14bf
00000180: cd43 623c fa84 bdbc 1161 cebc 2b60 ad3c
00000190: aade bd3d 2702 d03c 4957 cdbc 5785 873d
000001a0: 1cba 90bd fcad 22bd 1c7d 453d 5956 313d
000001b0: 605d 52bd e345 2bbd b0ca 1c3d aa9e 76bd
000001c0: bea4 f8bc 927a 98bd 63d0 403d f78f 06bd
000001d0: d3a5 11bd 1948 a1bd 6011 863d e89b 533d
000001e0: 5319 2dbd 4f7f 84bd f4ac b23d 999a 763d
000001f0: f186 3abd eb97 1fbc e860 fe3c e59c 353d
00000200: 0f18 aabd 9ba1 11bd 388e aabd 319c 983d
00000210: 34f7 a93d ac75 673d 0dc5 77bd e7b2 943d
00000220: 326e a4bc 8ee0 55bd df93 ad3d 3959 acbd
00000230: d16f 073e 8ed3 383e 9ae2 6a3d 9447 69bd
00000240: 1df8 ac3c af03 233d 2623 dc3c 45f3 7dbb
00000250: c283 083d 0b82 f53c f935 383d 7749 82bd
00000260: dfed 78bd 6638 2f3d 5e74 883d 2fed a0bc
00000270: 855b c73c 6c45 63bd 87d9 8e3d c509 70bd
00000280: 1c67 113d 8886 113d a8b4 a2bd abe8 5bbd
00000290: e50a bcbd 2dc7 2d3c f131 4cbd 85c0 41bd
000002a0: 5d50 b9bc d9f0 533d cc38 263d f40f 85bd
000002b0: 1e65 46bd 667b 83bd 0eba 473d cc77 c9bd
000002c0: de3d cfbd b370 35bf 0f60 0dbf f77e 043f
000002d0: 9cbe 01be 3c4b 75be bebd 423b 2c36 3abe
000002e0: 4990 0a3f 54a6 833f 6bd3 1b3f 9aba 093e
000002f0: a437 9dbd 4fb7 41be d095 7dbf 071d 5bbf
00000300: ac87 073f c8d8 8a3d 0a18 1fbd 0774 21be
00000310: 4ab3 083f 3669 b23d 56d3 533e 29d1 da3e
00000320: 2e49 273e 310c 11bc 612e 693d 9076 ac3e
00000330: d0d5 32be 0503 bbbd 759d 19be 9f25 813c
00000340: 30c7 a03e e5f7 2a3f 5461 d73e aae8 853e
00000350: faf5 693d 104d d9be 77ef 41be 3146 05be
00000360: 5294 7f3f e888 0f3e be3d da3c 52c6 a0be
00000370: fcac 543f 3575 0f3e 1d95 453e 6988 adbe
00000380: 9434 85be 4576 593d d1ec b5be 2727 c93e
00000390: 5076 a33c 75ac af3e 3ad0 4cbe 4aea b83c
000003a0: d465 6bbd c46b 81be 0f55 e6be 3726 08be
000003b0: 341e 06bf d176 e9be c5f2 6fbd 3379 e33e
000003c0: eada c93c 8b75 193d 2edc d63c 6d23 98bd
000003d0: f5f6 043d 93a8 863d 90ab dc3c 995b d0bc
000003e0: 4640 cbbd b110 753d 234f 8f3d cd3e 83bd
000003f0: 5b7a acbd 35e9 57bd adc7 ab3d 9b65 0c3e

bias f4 [120]
-0.3765408 -0.090273246 -0.077510335 -0.11112013 -0.24553557 -0.037382077 -0.44806913 -0.51347077
-0.88944 -0.38798252 -0.085586414 0.36426845 -0.072305165 0.3228199 -0.06384548 -0.098289825
-0.7274069 -0.17024228 -0.019337177 -0.06745507 -0.25986955 -0.052669715 -0.103254266 -0.02680395
0.2374591 -0.16822629 -0.825706 -0.04988602 -0.36551198 0.12675256 -0.07494124 -0.3948598
-0.12856145 0.07209489 -0.035473563 -0.51945615 -0.03596292 -0.047432106 -0.49612224 -0.2631303
-0.5484686 -0.026756309 -0.050918117 -0.060100894 -0.13314013 -0.031944197 -0.84372795 -0.44274163
-0.06703099 -0.030357597 -0.046211082 -0.5140037 -0.43324128 -0.030535186 -0.530887 -0.54054517
-0.43263313 -0.14003934 -0.050157208 -0.29779705 -0.07199337 -0.19691029 -0.3142122 -0.07591511
-0.3961161 -0.13281761 -0.111461826 -0.12808943 -0.101906836 -0.24073455 -0.074779525 0.20136164
-0.075195126 -0.030080665 -0.25858632 -0.2645802 -0.057073753 -0.048868626 -0.37013507 -0.2462229
-1.0840181 -0.051570315 -0.06199718 -0.1566308 0.5041041 -0.11813218 -0.07041827 -0.35582787
-0.06455165 -0.08033205 -0.17713049 -0.45507565 -0.54157686 -0.037364475 -0.072014004 -0.019379258
-0.4050391 0.00059382676 -0.15808989 -0.123495005 -0.20810096 0.2083045 0.04667617 -0.20053226
-0.03941585 -0.04932695 -0.46800315 -0.077428006 -0.31159824 -0.047915522 -0.06266593 -0.72251415
0.85230976 -0.31922442 -0.9019769 -0.2573403 -0.19222821 -0.32053885 -0.6003111 -0.25266305
00000000: f5c9 c0be 2ee1 b8bd bdbd 9ebd f392 e3bd
00000010: ad6d 7bbe f31d 19bd 5169 e5be d272 03bf
00000020: 57b2 63bf a5a5 c6be ee47 afbd 6581 ba3e
00000030: bb14 94bd a648 a53e 6bc1 82bd 2d4c c9bd
00000040: 5737 3abf fe53 2ebe 0069 9ebc e225 8abd
00000050: 9f0d 85be 33bc 57bd f976 d3bd f593 dbbc
00000060: 7a28 733e 8343 2cbe 7861 53bf 4955 4cbd
00000070: 6324 bbbe 6ccb 013e cb7a 99bd 102b cabe
00000080: 9da5 03be 7ca6 933d ba4c 11bd 14fb 04bf
00000090: db4d 13bd 2b48 42bd bc03 febe 04b9 86be
000000a0: 7068 0cbf 0c30 dbbc 848f 50bd 5b2c 76bd
000000b0: e355 08be ebd7 02bd 8efe 57bf 08af e2be
000000c0: 8b47 89bd 7fb0 f8bc d547 3dbd bf95 03bf
000000d0: cdd1 ddbe ed24 fabc 36e8 07bf 2b61 0abf
000000e0: 1782 ddbe 7966 0fbe a571 4dbd db78 98be
000000f0: 4371 93bd daa2 49be 6ce0 a0be 6279 9bbd
00000100: bbcf cabe 5701 08be 1946 e4bd e029 03be
00000110: 88b4 d0bd 1e83 76be 0226 99bd bf31 4e3e
00000120: e7ff 99bd ba6b f6bc 6d65 84be 0e77 87be
00000130: 2bc6 69bd 782a 48bd 5882 bdbe db21 7cbe
00000140: 1bc1 8abf 653b 53bd c1f0 7dbd d363 20be
00000150: f70c 013f 49ef f1bd 7437 90bd 122f b6be
00000160: a833 84bd 2185 a4bd b261 35be adff e8be
00000170: c8a4 0abf 7e0b 19bd 147c 93bd 40c1 9ebc
00000180: 4961 cfbe 0aab 1b3a 51e2 21be f3ea fcbd
00000190: 6b18 55be c64d 553e 832f 3f3d 5458 4dbe
000001a0: 8472 21bd 0e0b 4abd 1c9e efbe 9392 9ebd
000001b0: ce89 9fbe 1143 44bd ff56 80bd b0f6 38bf
000001c0: f930 5a3f 6271 a3be f5e7 66bf 1cc2 83be
000001d0: 79d7 44be ab1d a4be fdad 19bf 0d5d 81be

weight f4 [60, 120]
-0.18647678 -0.05036298 0.11947537 -0.055846464 -0.4989357 -0.110258326 -0.5024482 -0.1604727
0.68624103 -0.33944547 0.026526883 0.031997416 -0.16141318 -0.05999617 0.035908975 0.16417365
0.11615581 -0.037431058 -0.0049825734 -0.033721276 -0.055386487 0.0069463635 -0.21179545 0.009186001
-0.44277504 0.12986939 0.36421284 0.020544168 -0.32034793 -0.4295244 -0.03758388 0.23278971
0.021916112 -0.13329667 -0.05294869 0.056062125 -0.20484532 -0.03300468 -0.51249886 0.048500065
-0.16997659 0.15166827 0.039750613 0.036873005 -0.5113246 0.3349593 -0.115287 0.20419262
-0.13294193 -0.08071854 0.11824398 0.032084983 -0.00505136 0.017275687 0.14915164 0.013131944
-0.13506845 -0.20602158 -0.027751185 -0.22705624 0.104428664 -0.18063937 0.10224975 -0.021419182
-0.10931755 -0.6829651 0.0048386143 0.19232121 -0.39316142 -0.12405705 -0.11163934 -0.3416605
-0.13577257 0.0056299767 -0.047214158 -0.26466215 0.040840693 0.031618882 -0.19287607 0.10737293
-0.063826784 -0.07092469 -0.02550175 -0.2540425 -0.27687648 0.016400643 -0.100473925 -0.36697635
-0.03341164 -0.08205699 0.10306174 -0.3342128 -0.25860307 0.032427162 -0.39794603 -0.093072034
-0.27159035 -0.07501262 -0.41177976 -0.38808554 -0.010699824 -0.22270902 -0.2791223 0.10784627
0.018645925 0.03358919 -0.2522213 0.0116191935 -0.27881193 0.04202334 0.0022599555 0.3046198
-0.6554641 0.11871232 0.33669433 -0.31090596 -0.41831517 -0.3437181 -0.19763777 -0.05859505
-0.3121375 -0.16965023 -0.028235205 0.23216338 0.095755376 0.055331413 -0.27672675 -0.19767073
0.45408958 0.22335987 -0.02016949 -0.15082592 -0.11411715 -0.2661525 -0.0668591 -0.1417582
0.29920697 -0.6047548 0.11853412 -0.009106855 -0.51496303 0.003561019 -0.114469364 0.038858257
-0.5805413 -0.14654756 -0.3163122 0.045891907 0.14628223 -0.3374988 -0.019555211 -0.14003927
0.18140987 0.10457092 0.021586154 0.084053524 -0.3670814 0.08114674 -0.2893621 -0.051579174
0.36532474 0.084887296 0.028656196 0.06288491 -0.72603077 0.20809239 0.09010581 -0.20153816
-0.007629923 -0.18253352 0.049483865 0.20012307 0.12380816 -0.016545573 -0.49934188 -0.24122253
0.30024868 -0.09660163 0.12434577 0.27131593 -0.028304063 -0.60318035 0.2394381 0.08925101
0.06416507 -0.47488424 -0.041588534 -0.10159929 -0.45849213 -0.029017743 -0.030427128 -0.208045
0.051674142 0.061727002 -0.17986654 -0.551751 0.049453765 0.0041989624 0.15436736 0.06260876
-0.15267286 0.009868781 0.18212493 -0.048006203 -0.8185489 -0.021607121 -0.008523368 -0.7061814
-0.011879083 -0.13246559 0.0379585 -0.49875978 -0.28042004 0.05598432 -0.41729444 0.03951554
-0.4181027 0.04436895 -0.27097237 -0.48097408 0.11852372 -0.8924429 -0.50424963 0.18962656
0.092533804 -0.03172673 0.15875718 -0.05545038 -0.34001872 0.083661616 -0.05926474 0.5770463
-0.011340611 -0.036426645 -0.101989314 0.3193309 -0.26172528 -0.38307053 -0.046031468 0.19896978
-0.034204904 0.09385314 0.024649028 0.0049058106 0.019565435 -0.022449695 -0.15842852 7.437718e-05
0.014643173 -0.2009596 0.018493297 -0.43606156 -0.29836196 -0.48189482 0.017773325 0.016865607
00000000: c5f3 3ebe 6a49 4ebd 81af f43d 43bf 64bd
00000010: 8074 ffbe 1ecf e1bd 72a0 00bf f552 24be
00000020: 7ead 2f3f cccb adbe e84e d93c b90f 033d
00000030: 7f49 25be 8bbe 75bd 4a15 133d 231d 283e
00000040: 19e3 ed3d 4f51 19bd db44 a3bb 521f 0abd
00000050: f1dc 62bd 529e e33b e8e0 58be e180 163c
00000060: 69b3 e2be 7bfc 043e 1b7a ba3e 3e4c a83c
00000070: a504 a4be 9fea dbbe 8ef1 19bd 6d60 6e3e
00000080: 6b89 b33c ec7e 08be bae0 58bd 66a1 653d
00000090: f9c2 51be ea2f 07bd 2033 03bf 01a8 463d
000000a0: 580e 2ebe ed4e 1b3e 8ad1 223d 2608 173d
000000b0: 2be6 02bf c97f ab3e 971b ecbd df17 513e
000000c0: ee21 08be c34f a5bd e629 f23d 8b6b 033d
000000d0: e185 a5bb be85 8d3c 35bb 183e 5e27 573c
000000e0: 624f 0abe 52f7 52be 7456 e3bc 6e81 68be
000000f0: b2de d53d 87f9 38be 5168 d13d 4877 afbc
00000100: e1e1 dfbd cdd6 2ebf 3d8d 9e3b daef 443e
00000110: 744c c9be 9f11 febd 2ba3 e4bd 20ee aebe
00000120: f707 0bbe ab7b b83b a263 41bd cc81 87be
00000130: 9248 273d cd82 013d 4e81 45be 57e6 db3d
00000140: 9eb7 82bd f740 91bd 0ce9 d0bc dc11 82be
00000150: c1c2 8dbe a45a 863c 46c5 cdbd 53e4 bbbe
00000160: a5da 08bd 7f0d a8bd 0912 d33d f11d abbe
00000170: 9f67 84be 58d2 043d 95bf cbbe 8d9c bebd
00000180: e40d 8bbe 37a0 99bd ccd4 d2be 26b3 c6be
00000190: 514e 2fbc d50d 64be 1ee9 8ebe 81de dc3d
000001a0: 57bf 983c d294 093d 2623 81be 6e5e 3e3c
000001b0: 70c0 8ebe aa20 2c3d c31b 143b 20f7 9b3e
000001c0: 7fcc 27bf 721f f33d 3363 ac3e 112f 9fbe
000001d0: 682d d6be d2fb afbe 8e61 4abe 5d01 70bd
000001e0: 7dd0 9fbe cab8 2dbe 844d e7bc 3dbc 6d3e
000001f0: 651b c43d 31a3 623d 21af 8dbe 326a 4abe
00000200: 6e7e e83e 73b8 643e 7c3a a5bc 1c72 1abe
00000210: 41b6 e9bd 2445 88be 6ced 88bd 1029 11be
00000220: a831 993e 36d1 1abf 04c2 f23d eb34 15bc
00000230: 9ed4 03bf fc5f 693b ea6e eabd d629 1f3d
00000240: 5b9e 14bf 9010 16be acf3 a1be 27f9 3b3d
00000250: 02cb 153e a5cc acbe 4032 a0bc 7466 0fbe
00000260: 82c3 393e 4729 d63d 72d5 b03c 4124 ac3d
00000270: 18f2 bbbe 4330 a63d 4527 94be af44 53bd
00000280: d80b bb3e 64d9 ad3d 66c0 ea3c cec9 803d
00000290: 27dd 39bf 2c16 553e 6589 b83d 0560 4ebe
000002a0: 6f04 fabb 11ea 3abe 98af 4a3d 10ed 4c3e
000002b0: 228f fd3d 958a 87bc bda9 ffbe 0a03 77be
000002c0: 32ba 993e 13d7 c5bd ffa8 fe3d ece9 8a3e
000002d0: ecdd e7bc 076a 1abf 432f 753e 3cc9 b63d
000002e0: fa68 833d 0724 f3be bd58 2abd 4a13 d0bd
000002f0: 7bbf eabe 9eb6 edbc 5042 f9bc c009 55be
00000300: 44a8 533d 74d5 7c3d ef2e 38be 8e3f 0dbf
00000310: 0890 4a3d 7397 893b 7a12 1e3e 0639 803d
00000320: 4656 1cbe abb0 213c f57e 3a3e 27a2 44bd
00000330: 6c8c 51bf 6b01 b1bc 99a5 0bbc 4ec8 34bf
00000340: 7ca0 42bc 0fa5 07be 5f7a 1b3d 715d ffbe
00000350: 3793 8fbe d04f 653d 9ea7 d5be 0cdb 213d
00000360: 8f11 d6be 37bc 353d e4bc 8abe 3c42 f6be
00000370: 90bc f23d 2377 64bf 8116 01bf 772d 423e
00000380: 5d82 bd3d e3f3 01bd 3e91 223e f01f 63bd
00000390: ef16 aebe c856 ab3d 96bf 72bd 4eb9 133f
000003a0: f8cd 39bc 1b34 15bd c6df d0bd 577f a33e
000003b0: db00 86be d221 c4be 7e8b 3cbd bcbe 4b3e
000003c0: 711a 0cbd 1336 c03d c2ec c93c ecc0 a03b
000003d0: b147 a03c 6ce8 b7bc 163b 22be f2fa 9b38
000003e0: ebe9 6f3c 5ac8 4dbe 417f 973c 7643 dfbe
000003f0: e6c2 98be ebba f6be 5d99 913c be29 8a3c

bias f4 [60]
-0.5200918 0.32637483 -0.70294666 -0.2544885 0.23629035 -0.96822363 -0.84662014 -0.5481279
-1.3362654 -1.0835302 -0.78685904 0.75699276 -1.8421968 -0.75828105 0.5655261 -0.8336117
0.809264 0.025135344 -0.26834977 -0.48682877 -0.725707 0.98381793 0.6426306 -0.7523047
-0.07901944 0.37503216 -0.70829785 -1.189954 -0.5460419 -0.07847128 -1.1190263 0.8536795
-0.7616498 -0.8393962 -0.4466971 -0.8804623 -0.5691632 -0.6043165 -0.46656471 0.4220261
0.087206416 -0.1590752 -1.0678551 -1.2210132 -0.880163 -1.2090443 -0.7132648 0.809024
0.06614496 -0.20478287 -0.6982685 0.6967862 -0.2632891 -0.67548066 -0.29805592 -0.94605285
-0.42368135 -0.6712145 -1.0655124 0.42215502
00000000: bc24 05bf 9a1a a73e 50f4 33bf 514c 82be
00000010: 19f6 713e 81dd 77bf 19bc 58bf 1c52 0cbf
00000020: bf0a abbf 1eb1 8abf 986f 49bf 47ca 413f
00000030: 1bcd ebbf b51e 42bf 52c6 103f 9467 55bf
00000040: ed2b 4f3f a3e8 cd3c 2465 89be 9f41 f9be
00000050: efc7 39bf 7edb 7b3f 7083 243f 0a97 40bf
00000060: f2d4 a1bd 3704 c03e 0253 35bf 6a50 98bf
00000070: 67c9 0bbf 8db5 a0bd 413c 8fbf bd8a 5a3f
00000080: 7bfb 42bf abe2 56bf 7bb5 e4be fa65 61bf
00000090: aeb4 11bf 7cb4 1abf 92e1 eebe ce13 d83e
000000a0: 4799 b23d 9ce4 22be 7aaf 88bf 294a 9cbf
000000b0: 5d52 61bf f7c1 9abf 8698 36bf 321c 4f3f
000000c0: 0277 873d 9ab2 51be b9c1 32bf 9560 323f
000000d0: d4cd 86be 4dec 2cbf c99a 98be 8530 72bf
000000e0: c3ec d8be b7d4 2bbf b662 88bf b424 d83e

weight f4 [10, 60]
0.12941942 0.044088457 -0.058943514 -0.16631098 0.06162855 -0.076780744 -0.2785101 -0.040207893
-0.3287602 -1.3546515 0.104814224 0.0835119 -0.22983687 0.084901355 0.056151185 0.08741636
-0.18965599 0.116190314 -0.038217608 -0.113099426 -0.59445083 -0.3099712 -0.010350717 0.037870113
-0.2869416 -0.027492551 -0.15700592 -0.48656535 0.19553438 -0.17725746 -0.34952617 -0.3597986
0.043138344 0.107469425 0.17708851 0.2268178 0.013682993 0.14985272 -0.34876028 0.20267507
-0.048595935 -0.541912 -0.31711838 -0.08228832 -0.029737355 0.01683503 0.095920585 -0.277924
0.11723438 -0.13856113 -0.1644219 -0.21571003 -0.34440255 0.07962723 -0.021256259 -0.27690002
0.11081283 0.17589332 -0.6354395 -0.42625025 -0.23851055 0.051464498 -0.030134842 -0.046257682
0.1821572 -0.16694412 -0.29364532 0.22145815 -0.043001465 -0.50761765 -0.13297285 0.26761103
-0.27127787 -0.026679609 -0.19458161 -0.314753 0.07645064 0.3249743 -0.062454134 0.122159764
-0.18772066 0.07629147 0.3392377 -0.31394547 0.10108574 -0.07946317 -0.77289003 -0.3014779
0.15710783 -0.088225365 0.009137053 -0.123902775 -0.18368037 0.0013316753 -0.63714594 -0.56424904
-0.22439645 0.06381437 -0.0032562565 -0.3207302 0.07401109 -0.24751803 -1.2006679 -0.15752181
-0.13412093 -0.03575691 -0.8375107 -0.46893978 -0.45903137 0.06094689 -0.05283246 -0.021674152
-0.42331544 0.11647213 0.18967415 -0.19881923 -0.58377093 -0.06106922 -0.95280254 0.1818043
-0.09556745 0.0112159625 0.063340105 0.06560555 -0.06142463 -0.2842042 -0.6574196 0.05325148
-0.21470238 0.006941626 -0.18239759 -0.32683074 -0.81094813 0.18394238 -0.07467973 0.016875248
-0.22472236 0.043006606 0.13838181 -0.061685264 -0.40173215 0.26720187 0.15894665 -0.09301781
-0.19873889 -0.09673298 -0.21930079 -0.36863723 -0.1480515 0.035220172 0.015567204 0.29408422
-0.061047375 -0.21897897 -0.090488166 0.18284945 0.20911433 -0.057273492 0.16269945 0.17229348
-0.04460601 -0.15965392 -0.26802894 -0.12906797 0.2089736 -0.49606106 -0.029226094 0.052470345
0.019194966 0.01298616 -0.48252565 -0.24484257 0.005239879 0.23696488 -0.13726144 -0.5678998
0.18349308 -0.0075218985 -0.30986252 -0.12534152 -0.08099406 -0.1638554 0.053435322 -0.19329438
-0.12225427 -0.7537034 -1.2339442 0.15105402 -0.14020517 -0.45011935 0.09568607 -0.13464493
-1.1287943 -0.16496202 0.103098765 -0.007855365 0.34736803 -0.034578096 0.104373 -0.61337465
0.20851383 0.14884385 -0.43094325 0.14595094 0.04647008 -0.10599566 -0.4404867 -0.89803725
-0.23687615 0.09330581 0.17093089 0.17810883 0.11071046 -0.15667348 -0.12211284 0.021337412
-0.31426448 -0.18552263 -0.11868878 -0.22890185 -0.1322465 -0.15711567 -0.7980227 -0.0033971341
-0.19829425 -0.2656413 -0.0075030765 -0.05185939 0.12390379 0.035350576 -0.7874501 -0.14264888
-0.44221655 -0.17333217 -0.5232893 -0.0038920094 0.084679596 0.034748964 -0.3634347 -0.44036835
-0.010502739 0.042048715 -0.02582685 -0.034861907 0.062365867 -0.39024198 -0.2132632 0.23118177
0.06918356 0.07287668 -0.12265475 -0.30263016 -0.465994 -0.12292786 -0.6537139 -0.027371734
00000000: 8686 043e 1996 343d c16e 71bd 6d4d 2abe
00000010: 386e 7c3d 393f 9dbd e098 8ebe 08b1 24bd
00000020: 4253 a8be 3865 adbf d7a8 d63d 4908 ab3d
00000030: 5b5a 6bbe c3e0 ad3d c9fe 653d 5907 b33d
00000040: 2e35 42be 30f5 ed3d 118a 1cbd aca0 e7bd
00000050: ee2d 18bf 8cb4 9ebe 0e96 29bc b11d 1b3d
00000060: 02ea 92be 0f38 e1bc 29c6 20be 181f f9be
00000070: 2a3a 483e fb82 35be 18f5 b2be 8637 b8be
00000080: d5b1 303d ee18 dc3d b156 353e ed42 683e
00000090: a22e 603c fe72 193e b590 b2be 0e8a 4f3e
000000a0: 880c 47bd bfba 0abf 575d a2be c786 a8bd
000000b0: c19b f3bc 9ee9 893c 0372 c43d 0e4c 8ebe
000000c0: 9418 f03d f8e2 0dbe 375e 28be 17e3 5cbe
000000d0: 8855 b0be 9a13 a33d 9b21 aebc d7c5 8dbe
000000e0: d6f1 e23d 611d 343e 2aac 22bf 793d dabe
000000f0: 1c3c 74be 70cc 523d 58dd f6bc b278 3dbd
00000100: 6b87 3a3e 66f3 2abe ae58 96be edc5 623e
00000110: 4e22 30bd 3bf3 01bf 092a 08be 5004 893e
00000120: efe4 8abe 328f dabc 6740 47be 4e27 a1be
00000130: 2792 9c3d 0863 a63e e8cf 7fbd e62e fa3d
00000140: d839 40be b43e 9c3d 90b0 ad3e 76bd a0be
00000150: 0a06 cf3d 96bd a2bd 1fdc 45bf 505b 9abe
00000160: e0e0 203e 80af b4bd 94b3 153c bdc0 fdbd
00000170: b516 3cbe 9c8b ae3a ff1b 23bf a072 10bf
00000180: 2fc8 65be 1cb1 823d eb66 55bb c036 a4be
00000190: 2093 973d 5e75 7dbe 7caf 99bf 664d 21be
000001a0: ff56 09be d675 12bd 1a67 56bf e018 f0be
000001b0: 2906 ebbe 72a3 793d d966 58bd fe8d b1bc
000001c0: cdbc d8be f188 ee3d f139 423e 4597 4bbe
000001d0: 0372 15bf b823 7abd deea 73bf e82a 3a3e
000001e0: deb8 c3bd 28c3 373c 75b8 813d 345c 863d
000001f0: 6598 7bbd 3783 91be a74c 28bf 391e 5a3d
00000200: f1da 5bbe 9476 e33b 6fc6 3abe 5c56 a7be
00000210: 4c9a 4fbf 645b 3c3e b0f1 98bd f63d 8a3c
00000220: 9e1d 66be b227 303d f6b3 0d3e b0a9 7cbd
00000230: d6af cdbe afce 883e e9c2 223e 1f80 bebd
00000240: 3582 4bbe f11b c6bd 6390 60be 05be bcbe
00000250: d09a 17be 0743 103d 960d 7f3c 3592 963e
00000260: d00c 7abd 063c 60be dc51 b9bd e33c 3b3e
00000270: 1122 563e 9c97 6abd af9a 263e b46d 303e
00000280: cbb4 36bd 517c 23be 173b 89be 652a 04be
00000290: 2dfd 553e b7fb fdbe 906b efbc 25eb 563d
000002a0: c33e 9d3c e7c3 543c 9a0d f7be 03b8 7abe
000002b0: 4ab3 ab3b eca6 723e 438e 0cbe e261 11bf
000002c0: 9ce5 3b3e 427a f6bb 4da6 9ebe 8759 00be
000002d0: 37e0 a5bd b6c9 27be ffde 5a3d f6ee 45be
000002e0: 7260 fabd b5f2 40bf e2f1 9dbf e8ad 1a3e
000002f0: f291 0fbe 0b76 e6be 0ff7 c33d 5ce0 09be
00000300: 557c 90bf ceeb 28be 7225 d33d cab3 00bc
00000310: 39da b13e c3a1 0dbd 83c1 d53d 1f06 1dbf
00000320: a684 553e 866a 183e 98a4 dcbe 2a74 153e
00000330: 6957 3e3d 4114 d9bd 7987 e1be c5e5 65bf
00000340: a98f 72be 1e17 bf3d 8208 2f3e 2962 363e
00000350: 2abc e23d 036f 20be 4c16 fabd cccb ae3c
00000360: 46e7 a0be a5f9 3dbe 1a13 f3bd 3f65 6abe
00000370: a06b 07be eee2 20be 374b 4cbf 74a2 5ebb
00000380: a60d 4bbe 2302 88be 5edc f5bb 836a 54bd
00000390: 45c1 fd3d c4cb 103d 5496 49bf 8c12 12be
000003a0: 356a e2be fd7d 31be 4af6 05bf 1511 7fbb
000003b0: 7f6c ad3d ee54 0e3d 1d14 babe f677 e1be
000003c0: ae13 2cbc 463b 2c3d d592 d3bc 5ccb 0ebd
000003d0: 5a73 7f3d cccd c7be ab61 5abe eaba 6c3e
000003e0: 1cb0 8d3d 5e40 953d 6a32 fbbd 57f2 9abe
000003f0: c496 eebe 9ac1 fbbd cb59 27bf b03a e0bc

bias f4 [10]
0.18626194 -0.014077506 0.039576076 -0.3233382 -0.6476278 -0.094482414 -0.51661897 -0.014172978
0.98198986 0.021043433
00000000: 73bb 3e3e 57a5 66bc 861a 223d 968c a5be
00000010: efca 25bf ff7f c1bd 2441 04bf c735 68bc
00000020: b063 7b3f 4763 ac3c
