Pytorch/trained_mnist_model_CNN.pth (torch_old, 425790 bytes, 8 tensors)

weight f4 [8, 1, 3, 3]
0	0xbf4a3360	-0.7898464
1	0xbed90de7	-0.4239342
2	0x3ece93f9	0.4034727
3	0x3ea8bc3e	0.32956117
4	0x3f2bd3e3	0.6712019
5	0x3e22d053	0.15899782
6	0x3e0e7810	0.13912988
7	0xbe9518f5	-0.29120603
8	0xbf54b294	-0.8308499
9	0xbc4d22c6	-0.012520498
10	0xbf77250f	-0.9654092
11	0xbec57924	-0.38568985
12	0x3e385283	0.18000226
13	0xbede93b2	-0.43472058
14	0x3e6ce67e	0.23134801
15	0x3ea874bb	0.32901558
16	0x3ec61d31	0.38694146
17	0x3e87fe9b	0.26561436
18	0xbec80dc1	-0.39072993
19	0x3d75251e	0.05984985
20	0xbeac469f	-0.3364763
21	0xbe887d9a	-0.26658326
22	0xbe188765	-0.14895399
23	0xbd69f675	-0.057119805
24	0xbf0592a5	-0.52176887
25	0xbe7a0206	-0.24414834
26	0xbea44094	-0.3208052
27	0x3f14b4da	0.5808846
28	0xbee81a7c	-0.45332706
29	0xbf75ac42	-0.9596597
30	0x3e249017	0.16070591
31	0xbf652a8f	-0.89518064
32	0xbf540e3e	-0.8283423
33	0xbf00ba0d	-0.5028389
34	0xbf09b5e7	-0.53793186
35	0xbc2bf734	-0.01049595
36	0xbefe64a5	-0.4968616
37	0x3f009a25	0.50235206
38	0xbf37b7cd	-0.7176483
39	0xbf4e036e	-0.80473983
40	0x3ea3b61f	0.31974885
41	0xbe8b0fbc	-0.27160442
42	0xbf13b9b6	-0.5770525
43	0x3eaa8125	0.33301654
44	0xbd9e0c06	-0.07717137
45	0x3eac15b3	0.33610305
46	0x3e96d3d3	0.29458484
47	0x3e81cead	0.25352994
48	0xbf06269c	-0.52402663
49	0x3e3c06ec	0.18362015
50	0x3e2b0355	0.1670049
51	0xbf906393	-1.1280388
52	0xbf552195	-0.8325437
53	0xbe91f3b5	-0.28506246
54	0xbe8adc9f	-0.27121446
55	0xbeb3ddcb	-0.35130152
56	0x3ea08605	0.3135225
57	0xbf4c0386	-0.79692876
58	0xbdc13975	-0.09434787
59	0x3ecc2a6c	0.39876115
60	0xbf11af6f	-0.56908315
61	0x3e4d9268	0.20075381
62	0x3f1c88a4	0.61146
63	0x3da84394	0.082160145
64	0xbef87ca2	-0.48532587
65	0xbf1bd6f2	-0.60874856
66	0x3f1b3efb	0.60642976
67	0x3d18efe3	0.03733815
68	0xbf747de8	-0.9550462
69	0x3e76e06e	0.2410905
70	0x3dad91b8	0.08475059
71	0x3d396921	0.045266274

bias f4 [8]
0	0xbf0694ee	-0.52571
1	0xbe5f6c54	-0.21818668
2	0xbdb53230	-0.08847463
3	0xbdc8b2db	-0.09799739
4	0xbf11bc28	-0.5692773
5	0xbd467347	-0.04844978
6	0xbed73140	-0.42029762
7	0xbebd6194	-0.3698851

weight f4 [16, 8, 3, 3]
0	0xbe58a885	-0.21158035
1	0xbdf064e2	-0.11737992
2	0xbe368099	-0.17822494
3	0xbe6b64e0	-0.229877
4	0xbe2bf6eb	-0.1679341
5	0x3d9bd24f	0.076084726
6	0xbbbb561d	-0.0057170526
7	0xbe0af73b	-0.13570873
8	0xbcda326a	-0.026635367
9	0xbe42cbad	-0.19023009
10	0xbddc2875	-0.10749904
11	0xbe30409b	-0.17212145
12	0xbc2659aa	-0.0101532135
13	0x3dfc25b0	0.12311876
14	0xbe12b181	-0.14325525
15	0x3d33e7e3	0.043922316
16	0xbd4c94d9	-0.04994664
17	0xbee6b349	-0.4505866
18	0xbd297ec6	-0.041380666
19	0xbc0e5ea4	-0.008689556
20	0xbe1fdb89	-0.1561109
21	0xbcac18c8	-0.02100791
22	0xbb1d78e9	-0.0024028367
23	0xbd0d4b29	-0.034495506
24	0xbe40f27b	-0.18842499
25	0xbe0622cf	-0.13099216
26	0xbd8408a3	-0.0644696
27	0xbe7ffb29	-0.24998154
28	0xbe4be5c7	-0.19911872
29	0xbe8175bf	-0.25285146
30	0xbe3a8557	-0.18214928
31	0xbe3955b4	-0.180991
32	0xbda5a157	-0.08087414
33	0xbe56b474	-0.20967275
34	0xbe8aac88	-0.27084756
35	0xbe4cd298	-0.2000221
36	0xbe81ce49	-0.25352696
37	0xbdb279d9	-0.08714647
38	0xbc882d7f	-0.016623257
39	0xbe9f8031	-0.3115249
40	0xbd924f3f	-0.07144021
41	0xbe062d51	-0.13103224
42	0xbdfa49d9	-0.122211166
43	0xbba48107	-0.005020264
44	0xbe541385	-0.20710571
45	0xbd9ca418	-0.07648486
46	0xbd3a79fe	-0.045526497
47	0x3d5ccadb	0.053904396
48	0x3e3164e3	0.17323641
49	0xbea01c94	-0.31271803
50	0xbea4752e	-0.3212065
51	0xbf0c90da	-0.54908526
52	0xbe988605	-0.2978975
53	0xbe197947	-0.1498767
54	0xbe7f7e07	-0.2495042
55	0x3b8f9e6b	0.0043828986
56	0xbe06c38e	-0.13160536
57	0xbe76deef	-0.2410848
58	0x3c2558d5	0.01009198
59	0x3c4acf66	0.012378549
60	0x3e0af57b	0.13570206
61	0x3da5fdda	0.08105059
62	0xbf109d7d	-0.5649031
63	0xbe691f6e	-0.22765896
64	0xbdde66c2	-0.10859443
65	0xbe3f471a	-0.18679467
66	0xbe82bc40	-0.25534248
67	0xbd9f0829	-0.07765228
68	0x3d899c12	0.06719221
69	0xbe021a75	-0.12705405
70	0xbd8b2c9d	-0.06795619
71	0xbe8f9df9	-0.2805021
72	0x3f17b26c	0.59256625
73	0x3ea4f793	0.32220134
74	0x3e87d295	0.2652785
75	0xbf00dd30	-0.50337505
76	0xbda53746	-0.08067183
77	0xbee3a3d2	-0.44460922
78	0xbe6cc4eb	-0.23121993
79	0xbdc4fc4f	-0.096184365
80	0xbd26d89c	-0.04073392
81	0xbf96552f	-1.1744746
82	0xbe3a6fa8	-0.18206656
83	0xba6b28d9	-0.00089706253
84	0xbfdb625d	-1.7139393
85	0xbf8c2800	-1.0949707
86	0x3f99f4fe	1.2027891
87	0xbed84718	-0.4224174
88	0xc005bf48	-2.0898
89	0x3ee2f820	0.4432993
90	0x3d0d817c	0.034547314
91	0xbea86e37	-0.32896587
92	0xbe40b3c6	-0.18818578
93	0xbe213eed	-0.1574666
94	0xbe625a20	-0.22104692
95	0xbec3b8b8	-0.38226867
96	0x3d7121bc	0.058870062
97	0xbe8bbd73	-0.27292976
98	0xbeacd793	-0.3375822
99	0xbebb9308	-0.36635613
100	0xbf93dce1	-1.1551782
101	0x3f903bcc	1.1268249
102	0x3ec74763	0.3892165
103	0xbf92563b	-1.1432565
104	0xbf033503	-0.51252764
105	0xbb38f816	-0.0028224043
106	0x3e1f9954	0.15585834
107	0xbf9c1eab	-1.2196859
108	0xbe9fb013	-0.3118902
109	0xbe5f5d06	-0.2181283
110	0xbf0832ac	-0.5320232
111	0x3f0a043d	0.5391272
112	0x3e4cf209	0.20014204
113	0xbe429983	-0.19003873
114	0xbf2e939e	-0.68193996
115	0x3ea968db	0.3308781
116	0x3e9e4894	0.30914748
117	0x3f0cf142	0.5505563
118	0xbfa8c251	-1.3184301
119	0x3e58aca7	0.21159612
120	0x3f01bde7	0.50680393
121	0x3dab873f	0.083754055
122	0xbfa132ee	-1.2593668
123	0x3f5aa3c2	0.85406125
124	0x3f191e2b	0.5981166
125	0xbe73911e	-0.23785827
126	0x3e8370af	0.25671908
127	0x3f2b16ee	0.6683186
128	0xbdebb35f	-0.11508822
129	0x3da93e0a	0.08263786
130	0x3e5b9fff	0.21447752
131	0xbf6941bd	-0.91115934
132	0xbe9e4da1	-0.309186
133	0x3e4dab88	0.20084965
134	0xbee842c5	-0.4536344
135	0xbfaba5bd	-1.3409954
136	0x3da9e2d7	0.082952194
137	0xbea388b6	-0.3194024
138	0xbf387470	-0.7205267
139	0x3e1bf68e	0.15230772
140	0x3f00271e	0.5005969
141	0xbe6a6a58	-0.2289213
142	0xbe90f9b6	-0.28315514
143	0x3dc8506f	0.097809665
144	0xbc00920c	-0.00784732
145	0xbe1d8672	-0.15383318
146	0xbd9996b3	-0.07499447
147	0xbe05666b	-0.1302735
148	0xbe3e3660	-0.1857543
149	0x3d5812ed	0.052752424
150	0xbdb220f7	-0.08697694
151	0xbe00f94b	-0.12595098
152	0xbdd3a52d	-0.10334239
153	0xbd9eb749	-0.077498026
154	0xbe3dbd8f	-0.18529342
155	0xbe056a44	-0.13028818
156	0xbe3c1312	-0.1836665
157	0x3cbd5c16	0.023115199
158	0x3b3528cc	0.0027642725
159	0x3cf2f019	0.029655503
160	0xbdd0edff	-0.10201644
161	0xbd81f804	-0.06346133
162	0x3c12175f	0.008916705
163	0xbcd408b6	-0.02588306
164	0xbdb2d36a	-0.0873173
165	0x3d1e40d3	0.03863604
166	0xbe3f1e61	-0.18663932
167	0xbdeef838	-0.11668438
168	0xbd299217	-0.041399088
169	0x3ce788b9	0.028263437
170	0xbd776468	-0.06039849
171	0x3d327c05	0.043575305
172	0xbdeb98af	-0.115037315
173	0xbdceb109	-0.100923605
174	0xbdaa0f52	-0.08303703
175	0xbca1aa61	-0.019734563
176	0xbdd52486	-0.10407357
177	0xbe1c9b3d	-0.15293594
178	0xbd259a26	-0.04043021
179	0xbe20877f	-0.15676688
180	0xbe1662c4	-0.14686114
181	0xbdd243ae	-0.10266815
182	0xbb77afc6	-0.0037793978
183	0x3c8b331e	0.016992148
184	0xbd3e47c8	-0.046455175
185	0x3d5e9f73	0.05435128
186	0xbe1dbb88	-0.15403569
187	0x3d8039e5	0.062610425
188	0xbe105169	-0.14093556
189	0xbe47af7d	-0.19500537
190	0xbea5eb1f	-0.32405946
191	0xbeaa2c95	-0.33237138
192	0xbe83868a	-0.25688583
193	0xbe3fd6d7	-0.18734299
194	0xbe4afc68	-0.19822848
195	0xbdd1eb9f	-0.10250019
196	0xbe2c3d9d	-0.16820379
197	0xbe5a4357	-0.2131475
198	0x3d3d3f46	0.04620292
199	0x3cd1cf32	0.025611494
200	0x3d84299e	0.0645325
201	0xbe3d1d7a	-0.18468276
202	0xbdb742f4	-0.08948317
203	0xbdd000e7	-0.10156422
204	0xbce8fe7d	-0.028441662
205	0xbda44d38	-0.08022541
206	0xbd880fca	-0.066436365
207	0xbdaea229	-0.08527023
208	0xbd9d7d76	-0.076899454
209	0x3c08ec82	0.008357169
210	0xbd3e6ea7	-0.046492245
211	0xbdf37ca2	-0.11889006
212	0xbd46c9e3	-0.048532378
213	0xbdb473c3	-0.08811142
214	0xbe261c56	-0.16221747
215	0x3c3f3e91	0.011672632
216	0x3e4564f1	0.19276787
217	0xbf06f482	-0.5271684
218	0x3f128552	0.5723468
219	0xbf1003d0	-0.5625582
220	0xbeb554b6	-0.35416192
221	0x3eb27c76	0.3486058
222	0xbf6b8686	-0.9200214
223	0xbf3b4bb9	-0.7316242
224	0xbeb5050e	-0.3535542
225	0xbf26e3c3	-0.65191287
226	0x3e95b7aa	0.29241687
227	0x3f10bf36	0.56541765
228	0xbfa70f37	-1.3051518
229	0x3dcb1cc7	0.09917598
230	0xbf0f5be8	-0.5599961
231	0x3ed11d0c	0.40842474
232	0xbeec6def	-0.46177623
233	0x3f06a8f3	0.52601546
234	0xbee46689	-0.44609478
235	0xbe707a57	-0.23484169
236	0xbe66be96	-0.2253364
237	0xbe72ca82	-0.23710063
238	0xbe15b877	-0.14621149
239	0xbe093294	-0.133982
240	0xbe2973a5	-0.16548021
241	0x3c9b1713	0.018931901
242	0x3dcceed2	0.10006489
243	0xbf2d1ac2	-0.67618954
244	0x3dbc5ec1	0.091977604
245	0xbf82e2db	-1.0225481
246	0xbf1b93b0	-0.6077223
247	0xbf8182e2	-1.0118067
248	0xbf138500	-0.57624817
249	0x3e3f23f6	0.18666062
250	0xbf4ce7a6	-0.8004097
251	0x3ef30744	0.4746648
252	0xbe88c8d5	-0.26715723
253	0x3f1c246e	0.6099309
254	0x3d828f37	0.06374972
255	0xbe47a06f	-0.19494794

bias f4 [16]
0	0xbe88e6e3	-0.26738653
1	0xbe1f1be5	-0.15537985
2	0xbdb62e5b	-0.0889556
3	0xbf026c4b	-0.5094649
4	0xbe94d379	-0.2906759
5	0xbecc11d8	-0.39857364
6	0xbe8b4cc6	-0.2720701
7	0xbe09b507	-0.13447963
8	0xbef1380d	-0.47113076
9	0xbe01f0a6	-0.12689456
10	0xbdad4f86	-0.084624335
11	0xbdc85a93	-0.09782901
12	0xbdb52855	-0.08845583
13	0xbf0c49dc	-0.548002
14	0xbedfd5d0	-0.43717813
15	0xbe62d1b0	-0.22150302

weight f4 [128, 784]
0	0xbcbe275f	-0.023212133
1	0x3b90c900	0.0044184923
2	0xbd3a5289	-0.045488868
3	0xbcb31590	-0.021860868
4	0xbcd1621a	-0.025559474
5	0xbd826022	-0.06365992
6	0xbdf147c9	-0.1178127
7	0xbc80ff38	-0.015746698
8	0xbd7bc7e6	-0.061469935
9	0xbda6d5eb	-0.0814627
10	0x3c83442c	0.016023718
11	0x3ab4754b	0.0013767866
12	0xbda9f7b5	-0.082991995
13	0xbdcae719	-0.0990736
14	0xbd2ef748	-0.042716295
15	0xbda1482a	-0.07875092
16	0x3d0dead0	0.034647763
17	0x3e1ffd71	0.15624024
18	0x3d470a8b	0.04859404
19	0x3ca9be16	0.020720523
20	0xbcd275f4	-0.02569101
21	0x3c6b54bf	0.014363467
22	0x3ca55d62	0.02018613
23	0x3d20b029	0.0392305
24	0x3d85d324	0.065344125
25	0x3d1d2a80	0.03837061
26	0xbd312915	-0.04325207
27	0xbe0049f3	-0.1252821
28	0x3dc3b08d	0.09555159
29	0xbe09b2a9	-0.1344706
30	0xbdd411df	-0.10354971
31	0xbd7be770	-0.061500013
32	0xbce6bca3	-0.02816612
33	0xbdaf6211	-0.085636266
34	0xbd9e9fbb	-0.0774531
35	0xbc77d712	-0.01512696
36	0xbd5d1fac	-0.053985283
37	0xbd4f647d	-0.050632942
38	0xbd8094a0	-0.06278348
39	0xbc9a1527	-0.018808914
40	0xbdc8c886	-0.09803872
41	0xbdb026a4	-0.0860112
42	0x3d7aca4d	0.061228085
43	0x3d8454d5	0.06461493
44	0x3d03cdc2	0.032178648
45	0x3d9fdef9	0.078062005
46	0x3d924b83	0.07143309
47	0xbcf0f1a7	-0.029412104
48	0xbd1323b8	-0.035922736
49	0x3eaf885d	0.34283724
50	0xbf12c7bf	-0.5733604
51	0x3f4f05f6	0.8086847
52	0x3eebf4ca	0.46085197
53	0xbec1975c	-0.3781079
54	0x3dfa0a19	0.12208957
55	0xbd2d80ac	-0.04235904
56	0x3dc08d0b	0.09401902
57	0x3ed13564	0.40861046
58	0x3e3f6fe6	0.1869503
59	0x3eb2cda3	0.34922513
60	0xbf6ced1f	-0.9254932
61	0xbecbb874	-0.39789164
62	0xbdf9a7b4	-0.1219019
63	0xbda28ef3	-0.07937422
64	0x3c9dad93	0.019247806
65	0xbfaf67af	-1.3703517
66	0xbeb34b19	-0.35018232
67	0x3f7ea4fa	0.99470484
68	0xbf4765d1	-0.77889735
69	0xbed9f2f1	-0.42568162
70	0xbf0b5764	-0.5443022
71	0xbfbe28cb	-1.4856199
72	0x3d21004b	0.03930692
73	0x3f4245ad	0.75887567
74	0x3ee5a1e3	0.44850072
75	0xbf39987c	-0.724983
76	0xbe8d8521	-0.27640632
77	0x3f787666	0.9705566
78	0x3f05af77	0.52220863
79	0xbf59dc33	-0.8510162
80	0x3f3e061c	0.7422807
81	0xbf148b30	-0.58024883
82	0xbf4c3158	-0.7976279
83	0xbea4732e	-0.32119125
84	0x3e78c6aa	0.24294534
85	0x3e5b2ca4	0.21403748
86	0xbf0edf5d	-0.55809575
87	0xbf4416fb	-0.76597565
88	0xbf2230c1	-0.6335564
89	0xbf9193b0	-1.1373196
90	0xbef3b984	-0.47602475
91	0x3f0cd335	0.55009776
92	0x3e88312d	0.26600018
93	0xbf267c98	-0.65033865
94	0xbf7c98f3	-0.9867088
95	0xbeea4dda	-0.4576252
96	0xbe5054a0	-0.20344782
97	0x3e13cb87	0.14433108
98	0x3d3a90f1	0.045548383
99	0x3d9a16e5	0.07523898
100	0x3dc9d79c	0.09855577
101	0x3d5d29e5	0.053995032
102	0xbd299fa1	-0.041412
103	0x3d19f73b	0.037589293
104	0x3d0210a6	0.03175416
105	0xbd1573b8	-0.03648731
106	0x3d6d7cbb	0.05798028
107	0x3d887557	0.06663006
108	0xbd8b316c	-0.06796536
109	0xbd5995a9	-0.053121243
110	0xbd08ff87	-0.033446815
111	0x3d97e430	0.0741657
112	0xbd632c63	-0.055462252
113	0xbd4a2770	-0.049354017
114	0x3da6dcf2	0.08147611
115	0x3db3bfe6	0.08776836
116	0xbdb63d85	-0.08898453
117	0xbd4b7f91	-0.049682204
118	0xbd859de9	-0.065242596
119	0xbdca18e9	-0.098680325
120	0xbd8c03e1	-0.06836677
121	0x3db35edb	0.087583266
122	0xbdad8086	-0.084717795
123	0xbd7f02a5	-0.06225838
124	0xbdc998e7	-0.09843617
125	0x3cf96220	0.030442297
126	0xbd31e3fd	-0.043430317
127	0x3d86835a	0.06568022
128	0xbdc3de4b	-0.095638834
129	0xbd8f856a	-0.070078686
130	0xbdccd9d6	-0.100024864
131	0xbd98104d	-0.07424984
132	0x3daf76a9	0.085675545
133	0xbdc4876b	-0.095961414
134	0x3d63a504	0.055577293
135	0x3d2e8a0f	0.04261213
136	0xbd89eb79	-0.06734366
137	0xbdaff1a4	-0.08591011
138	0x3d78201c	0.060577497
139	0x3db29def	0.0872153
140	0xbd2ff013	-0.042953562
141	0x3d9dc092	0.077027455
142	0x3d7fac8e	0.06242042
143	0xbd63034a	-0.05542306
144	0x3d1758d7	0.03694996
145	0xbd08b46b	-0.033375185
146	0xbd28614f	-0.041108426
147	0x3e01108a	0.12603965
148	0xbebe4adc	-0.37166488
149	0xbf749bf5	-0.9555047
150	0xbee94405	-0.45559707
151	0xbf5e1bef	-0.86761373
152	0x3f2d23cb	0.6763274
153	0xbf25f6f6	-0.6482996
154	0x3e34079e	0.1758103
155	0xbcfa09ca	-0.030522246
156	0x4019bff8	2.4023418
157	0x3e41154a	0.18855777
158	0xbf67106a	-0.9025942
159	0xbe56a754	-0.20962268
160	0xbecac3d5	-0.39602533
161	0xbf37fd38	-0.71870756
162	0xbefa5de0	-0.48899746
163	0xbe20ace3	-0.15690951
164	0xbda9f47e	-0.08298586
165	0xbe368c79	-0.17827024
166	0xbf26e0d4	-0.6518681
167	0xbe728828	-0.23684752
168	0x3d96dad2	0.073659554
169	0xbf57bbe3	-0.8427107
170	0x3d119754	0.03554471
171	0xbf1367a1	-0.5758
172	0x3f8d92a7	1.106038
173	0xbf9d40c6	-1.2285392
174	0xbe8825c0	-0.265913
175	0x3f3a6400	0.7280884
176	0xbf404cb8	-0.75117064
177	0x3ef542bc	0.47902477
178	0x3f0f7c28	0.5604882
179	0xbf467f2b	-0.7753779
180	0xbf1eab82	-0.6198045
181	0xbe8262fb	-0.2546614
182	0x3f4ed6e5	0.80796653
183	0x3f463965	0.7743133
184	0x3eb03683	0.3441659
185	0x3eb5437c	0.3540305
186	0xbf1dcde6	-0.616423
187	0xbf0bf3ba	-0.5466877
188	0xbe8c2949	-0.27375248
189	0xbe844863	-0.25836477
190	0x3f417198	0.75563955
191	0x3eb7efeb	0.3592523
192	0xbf6ca206	-0.9243473
193	0xbf204659	-0.6260734
194	0xbe47d300	-0.19514084
195	0xbe1512d4	-0.14557964
196	0x3ed2c8d2	0.4116884
197	0xbfac79a7	-1.3474625
198	0xbe9f6114	-0.31128752
199	0xbf50d634	-0.8157685
200	0xbf381c2c	-0.71917987
201	0xbeb52449	-0.35379246
202	0x3ccf3893	0.025295531
203	0xbf282e84	-0.6569598
204	0x3f20a824	0.6275656
205	0x3f6d0211	0.9258128
206	0xbe8cad41	-0.27475932
207	0xbf43d2e9	-0.764937
208	0xbf955df2	-1.1669295
209	0x3f03d688	0.51499224
210	0xbe82d5eb	-0.2555383
211	0xbf62837e	-0.8848189
212	0x3f2bda5b	0.6713006
213	0xbf7f396b	-0.9969699
214	0xbfcf0a8f	-1.6175097
215	0xbf780374	-0.9688027
216	0x3e0614df	0.13093899
217	0x3ebec54c	0.372599
218	0xbf9f8124	-1.2461286
219	0x3e119126	0.14215526
220	0xbe594bc9	-0.21220316
221	0x3e4ae733	0.19814758
222	0xbf1a1eda	-0.60203326
223	0xbf4d5a83	-0.80216235
224	0x3ebfed7a	0.37485868
225	0x3f2780b8	0.65430784
226	0x3e8d04a7	0.27542612
227	0x3d99b7f8	0.075057924
228	0xbe539204	-0.2066117
229	0xbf25045e	-0.6445979
230	0xbf359565	-0.7093108
231	0x3e0e8b09	0.13920225
232	0xbf76fcae	-0.9647931
233	0x3f1c87ed	0.61144906
234	0x3e359891	0.1773398
235	0xbf3bf7d8	-0.73425055
236	0xbf4bf7c0	-0.7967491
237	0xbeb4e658	-0.35331988
238	0x3e89ac55	0.2688929
239	0xbe1f396f	-0.15549253
240	0xc0080bc8	-2.125719
241	0xbf8f1e00	-1.118103
242	0xbf0a82ef	-0.5410604
243	0xbf298b05	-0.6622775
244	0xbde60ea1	-0.11233259
245	0xbe3b3ee2	-0.18285707
246	0xbdea8433	-0.11450996
247	0x3d94f161	0.07272602
248	0xbddf4120	-0.109010935
249	0xbe0691be	-0.13141534
250	0xbdfc736f	-0.12326705
251	0xbe978cea	-0.29599696
252	0xbd8f0bd7	-0.0698468
253	0xbde1f6b4	-0.11033383
254	0xbf11e446	-0.5698894
255	0xbe245fd3	-0.16052179

bias f4 [128]
0	0xbf35a924	-0.70961213
1	0xbd12f90d	-0.035882045
2	0xbe60ebe6	-0.21964988
3	0xbda30476	-0.07959835
4	0xbd7658da	-0.06014333
5	0x3e2d6cbe	0.16936013
6	0xbd704d0f	-0.05866724
7	0xbd9a33e1	-0.07529426
8	0xbf1fe8db	-0.62464684
9	0xbf2ca578	-0.67439985
10	0xbefee32d	-0.49782696
11	0xbdc23eba	-0.094846204
12	0xbdc4659c	-0.09589693
13	0xbee8b9f9	-0.45454386
14	0xbe830d6a	-0.25596172
15	0xbe8fe3af	-0.28103396
16	0xbeb1ee97	-0.34752342
17	0xbf0e53ff	-0.5559692
18	0xbd2063d1	-0.039157692
19	0x3f29ec47	0.66376156
20	0xbd9b3d42	-0.075800434
21	0xbec4630b	-0.38356814
22	0xbd734229	-0.059389267
23	0xbd303f1b	-0.043028932
24	0xbdb9dbfb	-0.09075161
25	0xbdc31992	-0.095263615
26	0xbf243f42	-0.64159024
27	0xbd8bda90	-0.06828797
28	0xbf2966fd	-0.6617277
29	0x3dd7f2f7	0.10544389
30	0xbe56dd41	-0.20982839
31	0xbd6edd6c	-0.058316633
32	0x3e28172a	0.16415086
33	0xbf08dad4	-0.53458905
34	0xbd774aef	-0.060374197
35	0xbd52dbfe	-0.051479332
36	0xbd20d0b0	-0.03926152
37	0xbf2bdbd7	-0.67132324
38	0x3d32ec13	0.04368217
39	0xbc852812	-0.016254459
40	0x3e36a3da	0.17835942
41	0xbdf42b45	-0.119223155
42	0xbd93f233	-0.0722393
43	0xbdaf8adc	-0.08571407
44	0xbdb7e082	-0.08978368
45	0x3ea64f12	0.324822
46	0xbe8d75d3	-0.27628955
47	0xbd616aab	-0.055033367
48	0x3e7f28b2	0.24917868
49	0x3f7ec759	0.9952293
50	0xbece3171	-0.40272096
51	0xbf21fc57	-0.63275665
52	0xbe1fa215	-0.15589173
53	0x3f943e4a	1.1581509
54	0xbe158c32	-0.14604262
55	0xbd99a12f	-0.075014465
56	0xbe1d26ff	-0.15346907
57	0xbf79c5ed	-0.97567636
58	0xbe129271	-0.14313675
59	0x3e42df3b	0.19030468
60	0xbe1940e5	-0.14966162
61	0xbdc1db5e	-0.09465669
62	0xbe4463e1	-0.19178726
63	0xbd6a27c2	-0.057166822
64	0xbea2ac3c	-0.3177203
65	0xbdb9d830	-0.090744376
66	0xbdb66ca5	-0.08907441
67	0xbd20d1a3	-0.039262425
68	0xbdc770e1	-0.09738327
69	0xbd8afea3	-0.06786849
70	0xbdac7749	-0.08421189
71	0xbda074b8	-0.07834762
72	0x3e223f48	0.15844452
73	0xbe8e0ede	-0.27745718
74	0x3eadb6a4	0.33928406
75	0x3d24b882	0.040215023
76	0xbf2cd37b	-0.67510194
77	0xbf0ff6f7	-0.56236213
78	0xbf5746e7	-0.84092563
79	0xbef5fa09	-0.48042324
80	0x3d0f9620	0.03505528
81	0xbd8f02bc	-0.069829434
82	0xbcd4c2fb	-0.02597188
83	0xbe13bf13	-0.14428358
84	0xbdc90f20	-0.09817338
85	0xbe9bf54e	-0.3046059
86	0xbf5058c7	-0.81385463
87	0xbdb78030	-0.08959997
88	0xbf0280ae	-0.509776
89	0x3d9710c2	0.07376243
90	0xbe8be938	-0.2732637
91	0xbda80884	-0.08204749
92	0x3e45ffd0	0.19335866
93	0x3e00d70b	0.12582032
94	0xbed01e8e	-0.4064831
95	0xbeb1a018	-0.34692454
96	0xbf05ff33	-0.5234253
97	0xbec66111	-0.3874593
98	0xbd941ff1	-0.07232655
99	0x3e9adea5	0.3024799
100	0x3ee30d97	0.44346306
101	0xbf1e3cfa	-0.6181179
102	0xbd8f7eb0	-0.070065856
103	0xbe049abd	-0.12949653
104	0xbe478518	-0.19484365
105	0xbd223d66	-0.039609335
106	0xbdd6bb9a	-0.10485001
107	0xbde4d592	-0.11173548
108	0xbd9d0df7	-0.07668679
109	0x3ec27787	0.37981817
110	0xbeb1a81a	-0.34698564
111	0xbe8e9d56	-0.27854413
112	0xbdb148c2	-0.086564556
113	0x3db91df1	0.09038914
114	0xbf04ac70	-0.5182562
115	0xbf26c056	-0.6513723
116	0xbf6c98d0	-0.92420673
117	0xbda4fe79	-0.08056349
118	0xbe914553	-0.28373203
119	0xbd74fbe0	-0.05981052
120	0xbee4ef8a	-0.44714004
121	0xbed33970	-0.4125476
122	0xbeb9421c	-0.3618325
123	0xbdfee8d5	-0.12446753
124	0x3caad305	0.020852575
125	0x3e3f2f97	0.18670498
126	0xbec581b8	-0.3857553
127	0xbcc95742	-0.02457774

weight f4 [10, 128]
0	0x3e87c173	0.26514778
1	0x3cb7a904	0.02241946
2	0xbe09534e	-0.13410684
3	0xbcd5cd36	-0.026098829
4	0x3d3f07bb	0.04663823
5	0x3da6bb29	0.08141167
6	0x3de5d1bd	0.11221645
7	0x3d28686c	0.04111521
8	0x3efccaaa	0.4937337
9	0x3e4f715d	0.20258088
10	0xbf92dfc9	-1.1474544
11	0xbd4d63d4	-0.05014403
12	0x3abf7e66	0.0014609813
13	0x3d8b8b80	0.06813717
14	0x3ccde893	0.025135314
15	0xbecccc0a	-0.3999942
16	0x3df7df86	0.121031806
17	0xbe5b4baf	-0.2141559
18	0xbd27889a	-0.040901758
19	0xbf8d3a52	-1.1033423
20	0xbb56e097	-0.0032787675
21	0x3ea01009	0.31262234
22	0x3d1cd8e7	0.03829279
23	0xbde639a9	-0.112414666
24	0xbe1beac5	-0.15226276
25	0xbdcc8a40	-0.099873066
26	0xbf0605fb	-0.52352875
27	0xbd9eeab5	-0.077596106
28	0xbed9ba6f	-0.4252505
29	0x3f220c44	0.63299966
30	0xbea89731	-0.3292785
31	0xbccfc578	-0.025362715
32	0xbd958617	-0.07300966
33	0xbe1e4bb0	-0.1545856
34	0x3a9a33f9	0.0011764757
35	0xbc062c65	-0.008189295
36	0x3d77fe81	0.06054545
37	0x3d5650b7	0.05232307
38	0xbf341d2f	-0.7035703
39	0x3e59bc25	0.21263178
40	0xbe23f81d	-0.16012616
41	0xbd8ea073	-0.06964197
42	0xbd05869c	-0.032599077
43	0xbd9b2af5	-0.07576553
44	0x3d377b92	0.04479558
45	0xbf6f7244	-0.9353373
46	0xbe9a140a	-0.30093414
47	0x3d3fda6a	0.046839155
48	0xbec7042c	-0.3887037
49	0xbf113b15	-0.5673078
50	0xbe942c72	-0.2894016
51	0x3bd0a81d	0.006367697
52	0x3ea1e813	0.3162237
53	0xbe4a8481	-0.19777109
54	0xbe22d62e	-0.15902016
55	0xbd8f3177	-0.069918565
56	0x3cf25976	0.029583674
57	0xbe97e45b	-0.2966641
58	0xbebd1dba	-0.36936742
59	0x3d8f9f3e	0.07012795
60	0x3db3ea76	0.08784954
61	0x3bf71034	0.0075397734
62	0x3f65eb68	0.89812326
63	0xbedf4c00	-0.4361267
64	0x3e7632ae	0.2404277
65	0xbcb34ba6	-0.021886658
66	0x3f377873	0.71668166
67	0xbd9a106a	-0.07522662
68	0xbd67c365	-0.056582827
69	0xbd35463d	-0.044256438
70	0x3c990d57	0.018683119
71	0x3db80825	0.089859284
72	0x3e68c25a	0.22730389
73	0x3daa1948	0.08305603
74	0xbf086625	-0.5328086
75	0xbf609d41	-0.8773995
76	0xbf6741c1	-0.9033471
77	0x3c24e347	0.010063953
78	0x3e8057eb	0.25067076
79	0xbcaf363c	-0.021388166
80	0xbed90961	-0.42389968
81	0xbc48c2c1	-0.012253464
82	0xbf0bf7eb	-0.5467517
83	0x3ea698ce	0.32538456
84	0x3e0d6e46	0.13811597
85	0x3ee2fc1f	0.44332978
86	0xbeecd7dc	-0.46258438
87	0xbdd0a4aa	-0.10187657
88	0x3e983e39	0.29734972
89	0xbf271c4e	-0.65277565
90	0xbeabab2e	-0.33529037
91	0x3d5a3a5a	0.053278305
92	0x3c836d3c	0.016043298
93	0xbf90fc9e	-1.1327093
94	0x3de583cd	0.1120678
95	0x3ecb6fbd	0.39733687
96	0x3f01c420	0.5068989
97	0x3e8d4efb	0.2759932
98	0xbe0d3587	-0.1378995
99	0xbf2947a1	-0.6612492
100	0xbf681729	-0.9066034
101	0xbea5d840	-0.32391548
102	0xbf10e562	-0.5660001
103	0x3cd7a6eb	0.02632471
104	0xbe86656c	-0.26249254
105	0x3d4c7587	0.04991677
106	0x3ac101c1	0.0014725254
107	0xbe40697c	-0.18790239
108	0x3df85a95	0.12126652
109	0xbf09d919	-0.5384689
110	0xbe8db2ab	-0.27675375
111	0xbeb78a6e	-0.358478
112	0x3cb60b59	0.022222208
113	0xbf12251e	-0.57087886
114	0xbf11a1c1	-0.5688744
115	0xbf145379	-0.5793987
116	0x3ed8f66b	0.42375502
117	0xbdf7e0ac	-0.121034
118	0x3e556775	0.20840247
119	0xbddf4f66	-0.10903816
120	0xbf3d2dbf	-0.7389793
121	0xbeeec1ff	-0.46632382
122	0xbe6360cd	-0.22204895
123	0xbe2184e7	-0.15773354
124	0x3e1b3356	0.15156302
125	0x3f5148c7	0.81751674
126	0x3ce10c85	0.02747179
127	0xbe497e53	-0.19677095
128	0xbecc4ecc	-0.39903867
129	0xbdb91608	-0.09037405
130	0xbf50be3e	-0.81540287
131	0xbe1c027e	-0.15235326
132	0x3d6af225	0.057359833
133	0x3e0479f2	0.12937143
134	0x3ccb0dd8	0.024786875
135	0x3d09212b	0.033478897
136	0xbf6a2c62	-0.9147397
137	0xbefc8508	-0.49320245
138	0x3e611878	0.2198199
139	0xbd549277	-0.051897492
140	0x3dbc9497	0.09208029
141	0xbf384031	-0.7197295
142	0xbe26ffee	-0.16308567
143	0x3d5dd9b4	0.054162696
144	0xbe6cd794	-0.23129112
145	0xbf4a1283	-0.78934497
146	0x3c8f139f	0.01746541
147	0x3f56516d	0.83717996
148	0xbe1c0f52	-0.15240219
149	0xbe916432	-0.28396755
150	0x3c48bb29	0.012251654
151	0xbd64a012	-0.055816717
152	0xbb8ebc9f	-0.0043559815
153	0x3dc97b85	0.098380126
154	0xbed7391c	-0.42035758
155	0xbd69c002	-0.05706788
156	0xbf17a2e6	-0.5923294
157	0x3ed29d9d	0.41135874
158	0xbdd666f5	-0.10468856
159	0x3c90fd1a	0.017698813
160	0x3e58605d	0.2113051
161	0xbeee9e55	-0.46605173
162	0xbdb52967	-0.088457875
163	0xbdda4023	-0.10656764
164	0xbdc2a6d8	-0.09504479
165	0xbf69aead	-0.9128216
166	0x3e659ef2	0.22423914
167	0x3f4e27cb	0.8052947
168	0x3ed37c4a	0.41305763
169	0x3b680a39	0.0035406484
170	0xbd6219c6	-0.05520036
171	0xbbd290f2	-0.0064259702
172	0x3c8e806b	0.017395219
173	0x3e16ac7c	0.14714235
174	0xbecda5f7	-0.40165684
175	0xbe16ff41	-0.14745809
176	0x3eb59a16	0.3546912
177	0x3edefca1	0.43552116
178	0xbe412d2b	-0.18864886
179	0xbecaf63e	-0.39640993
180	0xbdb2143e	-0.08695267
181	0x3ed8da99	0.42354277
182	0xbde4b8ee	-0.11168085
183	0x3e53ad8f	0.20671676
184	0xbce0233b	-0.02736055
185	0xbef2cf6c	-0.47423875
186	0xbf15d9b5	-0.5853532
187	0xbd4732ae	-0.048632316
188	0x3db8be74	0.09020701
189	0xbdc8e7f4	-0.098098665
190	0xbe8802ae	-0.26564544
191	0x3ee7f10b	0.4530109
192	0x3cd4572e	0.025920477
193	0xbd0469d2	-0.03232748
194	0x3e67cb60	0.22636175
195	0xbe2303a2	-0.15919355
196	0x3c79afe0	0.015239686
197	0xbc8a3049	-0.016868727
198	0xbbc029dc	-0.005864365
199	0x3d571fd3	0.052520584
200	0x3f830a9d	1.0237614
201	0xbe662163	-0.22473674
202	0xbd885a99	-0.06657905
203	0x3e563eaa	0.20922342
204	0xbea56c94	-0.323094
205	0xbeef9b1f	-0.46798036
206	0xbf1e708e	-0.61890495
207	0x3e16389a	0.1467003
208	0x3e840c32	0.25790554
209	0xbdaa6fd9	-0.083221145
210	0x3f1c0291	0.60941416
211	0x3dbd5b55	0.09245936
212	0x3d1d4bf6	0.03840252
213	0xbf3e4c53	-0.7433521
214	0xbe4b6e1c	-0.19866222
215	0xbd614df2	-0.055005975
216	0xbec1318f	-0.37733123
217	0x3ed3a61c	0.4133767
218	0xbdd77319	-0.1052
219	0x3d77f3b2	0.06053514
220	0xbf810d3a	-1.0082161
221	0x3c88205d	0.016616995
222	0x3ed46653	0.41484317
223	0xbee5a943	-0.448557
224	0xbc9627c5	-0.01832951
225	0x3c697d88	0.01425112
226	0xbda71f70	-0.08160293
227	0x3dc66a03	0.09688189
228	0x3ea8a95f	0.3294172
229	0xbedf30ae	-0.43591827
230	0x3ea10268	0.31447148
231	0x3d8399aa	0.064257935
232	0x3dd2d09d	0.10293696
233	0x3dd6cd03	0.10488322
234	0xbca3758b	-0.01995351
235	0xbe74352f	-0.23848413
236	0x3dd35bcd	0.10320244
237	0x3f45c551	0.77254206
238	0x3e0f3a9b	0.139872
239	0xbced8c7a	-0.028997649
240	0x3c5e9970	0.013586387
241	0x3e3a0bad	0.18168516
242	0xbeb2c833	-0.34918365
243	0xbe8aa9a9	-0.27082565
244	0xbed27be3	-0.41110143
245	0xbe0f5395	-0.13996728
246	0xbf4c0ef4	-0.79710317
247	0xbdfff226	-0.12497358
248	0xbe988619	-0.29789808
249	0xbe04160e	-0.12899038
250	0xbf28bb92	-0.6591121
251	0xbd896a5d	-0.0670974
252	0x3dafe297	0.085881405
253	0x3d7a9170	0.061173856
254	0xbf4be8db	-0.79652184
255	0x3e319678	0.17342556

bias f4 [10]
0	0xbecc99e6	-0.39961165
1	0x3ec831c1	0.3910046
2	0xbdd6190c	-0.10453996
3	0x3e4d01a8	0.20020163
4	0x3e854246	0.26027125
5	0x3e236d85	0.15959747
6	0xbf859829	-1.043706
7	0xbea5fbf4	-0.32418787
8	0x3f4dd629	0.8040491
9	0xbe9095f7	-0.28239414
