Numpy/PyTorch/1trained_mnist_model_CNN.pth (torch_old, 425790 bytes, 8 tensors)

weight f4 [8, 1, 3, 3]
00000000: 9430 11bf da68 93be 697f ba3d bf83 01bf
00000010: c1bf bfbd 8f9d 9d3e e4ae aa3e 7e74 39be
00000020: a1e0 203d 800b 83be 7489 96bf a56b 55bf
00000030: 7a91 d03e e98d 15be 2a75 bbbf 509a b53e
00000040: 0509 07be a6c9 03bf 04d7 d4be d154 943e
00000050: a369 913e 11aa a6bd 5c07 cc3e 7c2f 553e
00000060: 46db 223b b357 253e 5530 d23d d01d 50be
00000070: 2025 3d3c b055 8c3c 5447 8cbe 8037 18be
00000080: f805 1a3d 301e e63c 8076 74bb 7b1c 8abe
00000090: f59e 5abe 95ba ab3e e50c 143f 2fee 64bf
000000a0: d725 03bf 23e5 cc3e ba2d 30bf f525 f9be
000000b0: bf26 fb3c 6d02 df3e 796e 1bbf c9d3 03bf
000000c0: b8f8 a73e dcfb cfbe b9d6 b8bd 4462 2a3e
000000d0: 8906 183f bd3d 083f 247f 04bf dde3 8e3e
000000e0: 91ab 903e 9080 b43e 00a1 3b3f 7f9e 8abe
000000f0: c83a 653e 0cea d1be 8e31 64bf bc69 9c3e
00000100: cdbb 713e 9920 143f 3ddf b7be 203a 893e
00000110: b42a 9dbd da41 4bbf 5283 4ebf 8e66 6dbf
-0.5671475 -0.28790933 0.09106333 -0.50591654 -0.09362746 0.3078427 0.33336556 -0.18110844
0.039276723 -0.2559471 -1.1760697 -0.8336738 0.4073599 -0.14604916 -1.4645131 0.35469294
-0.13187034 -0.51479566 -0.41570294 0.2897096 0.28400907 -0.08137906 0.39849365 0.20818895
0.0024849935 0.16146736 0.10263125 -0.20323873 0.011544496 0.017130703 -0.2739817 -0.14864922
0.03760335 0.028090566 -0.0037302077 -0.26974854 -0.213497 0.33540788 0.57832175 -0.8942594
-0.51229614 0.40018567 -0.68819773 -0.4866177 0.030658124 0.43556538 -0.6071544 -0.51495034
0.32806945 -0.4062184 -0.0902533 0.16639048 0.5938497 0.53219205 -0.517565 0.2790822
0.28255895 0.35254335 0.7329254 -0.27074048 0.22385705 -0.40998876 -0.89138114 0.3054942
0.23606797 0.5786224 -0.35912505 0.26802158 -0.076741606 -0.79397357 -0.8066913 -0.9273461

bias f4 [8]
00000000: d6ef 19bf a5fe 30be e4f1 92be c774 84be
00000010: 3f7e 9bbe 293d 20bf c6f3 d2be 94b1 16be
-0.60131586 -0.17284639 -0.28700173 -0.25870344 -0.30369756 -0.62593323 -0.4120161 -0.14716178

weight f4 [16, 8, 3, 3]
00000000: 49d9 97bd ce64 b53d 162f eb3e bf00 48be
00000010: 86ec 54bd aa7f e63c 4c09 fe3d a512 d4bd
00000020: 876c debe 362c b8be 90da 1ebf a2e7 7dbf
00000030: 5338 54be e83b e33e 5d2c 0b3e 318c 16bf
00000040: 5c1f d93b 674c 793e 3699 89bd 5522 943e
00000050: 7094 ce3e f828 53be f3d2 aa3d be39 d3be
00000060: 3e29 14be 8ed8 883d c792 073d f8a2 773c
00000070: 3183 bb3d f8be ccbd 2c67 b1bd b4f7 a0bd
00000080: 9d04 a1bd 5b45 b03d 60a0 c7bd 6e4b 8dbd
00000090: 7b79 8e3e 84df 97be 9b85 e8be 6ebe 8abe
000000a0: f8a4 983e 4a52 c13e f3cd 683e 5ad5 a23e
000000b0: 67ec cf3e 94f0 7fbf 00aa 3f3e be8d 88be
000000c0: cb90 e5bf 5915 e2be fd2b db3f bbbf 00c0
000000d0: 0cbb b6be 94ad 883f e4bb 813e 4150 193f
000000e0: 1022 b53f 6852 13bf 2110 68bf 1a5a 66bf
000000f0: 2ac4 c9be 4ce3 60bf 45c0 3bbd e773 8bbf
00000100: 72fc 92bf 73e1 3cbe 9055 603d 6f39 38bf
00000110: e716 4fbf 97d1 d23e 0d26 ee3d f905 8c3e
00000120: dd54 5fbe 5222 c8be 42e2 b6bd ecf9 a7be
00000130: b083 1ebf 05cb 4dbe 4d87 61be 70f1 25bf
00000140: 7dc3 f9bd 4599 03bc 9dca 7c3f 111a cdbe
00000150: d6e5 e0be fdc7 4f3e e7a6 b23d 74ae 1c3f
00000160: 8ce0 26bd 72fb 8cbe 90b9 a23e 0e74 82be
00000170: 9540 0c3e 0eb8 2fbf 9b3a 96be d9cb 03be
00000180: c480 aabe eea7 84bf a387 fbbc a017 01bc
00000190: af08 c9bd 6cb6 be3c a046 b43b 5404 d23c
000001a0: 18a1 a7bd c40c 48bd 458c b63d cf1b 6abd
000001b0: 0c55 0f3f 6c0e 9f3c 28c6 1ebf 7ca6 043e
000001c0: e45f 1ebb 618a 1c3e f326 7cbf 9e95 88bf
000001d0: 64af c4be 3d92 92be 3422 a13d 0068 413f
000001e0: 6bf4 b0bf cc16 58bf 42a1 8cbf 41db febd
000001f0: 1d28 4ebe 9adc 0b3e ce41 28be c7a0 493d
00000200: 0e6d 953e 5a11 3cbf 4172 55bf 0374 113e
00000210: 99d0 d9be c216 7ebf ede8 9dbf 4716 053f
00000220: fb71 8bbd 3d1e b63e 12df 843d bfce 173e
00000230: 1f6c 553f bf7b 72bf 01d9 3abf 069a 84bf
00000240: 4429 5ebf 67f5 7abe 44af 08bb 33c5 a8be
00000250: bd87 093e a9bb 893e 4f47 d53d c917 923e
00000260: 3ff2 20be f618 b23e aed3 79be 97a6 8dbd
00000270: 91f0 03bf 795f 85bf 6348 143e 42e7 c5be
00000280: 0330 35bf e07d 103e 29c8 9fbf 3377 7cbe
00000290: 56d9 a43e 62e2 cebf 0081 ce3e e630 023f
000002a0: afc5 5f3e 8506 293f f18a e7be b163 ec3d
000002b0: d94b 9f3d ea34 5dbd 04d1 a3bd 11fe eabd
000002c0: 52d9 063d 7e0e 383d b890 4fbc 8d1f f1bd
000002d0: b9bf 6ebf 83f8 68be 758c 1cbf ee80 71be
000002e0: 058f d7be 24a0 c9bf 1a84 993e c04c fbbe
000002f0: dd32 6fbf bb19 7ebf 69dd 913e fb57 50bd
00000300: 61fd 4bbf 204b 8a3d 4d6a dabd 1668 0b3e
00000310: 03d8 06bf 368d 23bf 9b48 30bd a920 26bf
00000320: f54b 1d3f d9e6 ebbe 642c 463e 13c3 b33e
00000330: be79 23be ff37 09bd 350d 603e a33e c6be
00000340: ea86 9cbf b8ec 33bf 0f0f 5fbf e6f2 c0bf
00000350: 9c66 2d3f fe0f acbf 0891 14bf 8587 52be
00000360: 3d87 ac3e d2c9 9abe 9a9b 94bf b72e 243e
00000370: 9313 debe 6a7c 0ebf 0a54 623d f49d 07bf
00000380: 9e6c f7be 380d 1dbe 0e57 6bbe aa44 3ebf
00000390: 6109 c2be 19b1 8c3e 10d0 a5bd bad8 f7be
000003a0: 062b 4cbe 7189 3dbc 8259 a43e 0dc7 e0bd
000003b0: 1485 4cbf 25d6 0d3f bb8f 9fbe ad3d 97bf
000003c0: 712c 213f 5620 7cbe e562 a6bf 78fc 1b3c
000003d0: 9a79 053d 4ce1 d73c c384 93bd bcdc 81bd
000003e0: fc97 f7bc 307f c93b 5674 d9bd 17a6 9dbd
000003f0: de7e 1abe 6725 c7bf 9e28 173d 57e1 98bd
-0.07414491 0.088571176 0.4593436 -0.19531535 -0.05198338 0.028137047 0.12404117 -0.10355119
-0.43442175 -0.3597123 -0.6205225 -0.9918157 -0.20724611 0.44381642 0.13591142 -0.58807665
0.006626053 0.24345551 -0.06718676 0.28932443 0.40347624 -0.20621097 0.083410166 -0.4125499
-0.14468858 0.066819295 0.033098962 0.015114538 0.09155882 -0.09997362 -0.086622566 -0.078597456
-0.07862208 0.086069785 -0.09747386 -0.06899153 0.27827057 -0.29662716 -0.45414433 -0.2709841
0.2981336 0.37758094 0.22734813 0.318034 0.40610048 -0.9997647 0.18717194 -0.2667064
-1.7934812 -0.44156912 1.7122799 -2.0117023 -0.3568958 1.0677972 0.25338662 0.5988808
1.415102 -0.57547617 -0.9064961 -0.89981234 -0.39407474 -0.8784683 -0.04583766 -1.0894746
-1.148329 -0.18445377 0.0547691 -0.71962637 -0.8089432 0.4117553 0.11628351 0.27348307
-0.21809717 -0.39088684 -0.08929874 -0.32807863 -0.6191969 -0.20096977 -0.2202427 -0.6482153
-0.121954896 -0.008032148 0.98746663 -0.4005895 -0.4392535 0.20291133 0.0872324 0.61203694
-0.04074149 -0.27535588 0.31782198 -0.25479168 0.13696511 -0.6864022 -0.29341587 -0.1287073
-0.33301365 -1.0363748 -0.030704325 -0.007879168 -0.098161094 0.023280345 0.005501583 0.02563683
-0.08185023 -0.0488403 0.08913473 -0.057155427 0.55989146 0.019416057 -0.6202111 0.12954134
-0.0024166042 0.15287162 -0.9849693 -1.067066 -0.38415062 -0.28627196 0.07867852 0.75549316
-1.382459 -0.84409785 -1.0986712 -0.12444163 -0.2013249 0.13658372 -0.16431352 0.049225595
0.29184765 -0.73463976 -0.8337746 0.14204411 -0.4254196 -0.99253476 -1.2336708 0.5198712
-0.068088494 0.35569945 0.0648786 0.14824961 0.83368105 -0.9472007 -0.7298737 -1.0359504
-0.86781716 -0.24507676 -0.002085642 -0.3296295 0.13430686 0.26900986 0.10413992 0.28533772
-0.1571741 0.3478467 -0.24397156 -0.0691654 -0.5153895 -1.0419761 0.14480738 -0.38652998
-0.70776385 0.14110518 -1.2482959 -0.24654846 0.32197064 -1.6162837 0.40332794 0.50855863
0.21852754 0.66025573 -0.4522319 0.11542452 0.07778139 -0.05400554 -0.07998851 -0.114742406
0.032922097 0.044935696 -0.012668781 -0.11773596 -0.93261296 -0.2275105 -0.6115182 -0.23584339
-0.42101303 -1.5751996 0.29983598 -0.49081993 -0.93436986 -0.9925801 0.28489235 -0.050865155
-0.796835 0.0675261 -0.106648065 0.13613924 -0.5267336 -0.63887346 -0.043037992 -0.64893585
0.61444026 -0.4607456 0.19352871 0.35109767 -0.1596441 -0.033500668 0.21880038 -0.38719663
-1.2228673 -0.7028308 -0.8713235 -1.5074127 0.67734694 -1.344238 -0.580338 -0.20559509
0.3369693 -0.30232102 -1.1609986 0.16033445 -0.4337431 -0.5565859 0.055255927 -0.5297539
-0.48325056 -0.15337074 -0.22982427 -0.74323523 -0.3789778 0.27478865 -0.080963254 -0.48407537
-0.19938287 -0.011568413 0.3209954 -0.10975466 -0.7989056 0.55404884 -0.31164345 -1.1815697
0.6295844 -0.2462171 -1.299893 0.009520642 0.03258667 0.026352547 -0.07203057 -0.0634093
-0.030223839 0.006149195 -0.106178924 -0.07697695 -0.15087458 -1.5558289 0.03690397 -0.07464855

bias f4 [16]
00000000: de40 60bf ce7f 7dbe 39a0 ccbd bdd7 75be
00000010: 5486 4fbe d3d7 b8be b265 05bf b144 1abf
00000020: bf10 8cbd 5d2d d1be 7124 85be 8cac 3dbf
00000030: 376e 93bd ee66 24be d73d 74be 47bd f8be
-0.8759898 -0.24755785 -0.099914975 -0.24008079 -0.20266086 -0.3610216 -0.521083 -0.60261065
-0.068391316 -0.40854922 -0.26004365 -0.7409141 -0.07198756 -0.1605489 -0.23851715 -0.48581907

weight f4 [128, 784]
00000000: ced6 123f fbd6 323f 7bc5 b1be 2861 2e3f
00000010: ea95 353f f5c5 66be 9cf2 a4bd 2ac6 2cbd
00000020: 9532 063d c5db 96bd 6f4e 5a3f e2d8 33be
00000030: d7c1 48bf bb1b f0bd 28cd 64bd 0370 eabf
00000040: 315e b7bf 4af2 9ebf 98eb 2c3f 01e0 f23e
00000050: 045e 6bbd 82b9 6c3e 1521 b1bf 3762 84bf
00000060: d1ee adbe 21db 893f 2966 733e 37d0 623d
00000070: 5652 d53f ae84 283d 5b1f 37be 33cf eb3e
00000080: 9d0a 653e ac5e 14bf a130 d1bb 5507 033f
00000090: 7801 383e 6665 4e3e 1d8a 3f3f 13c5 293d
000000a0: 4411 09bf 2654 f7bc 015a 81bd c708 8dbc
000000b0: b563 2fbf 5412 0e3e 1478 803d b677 81be
000000c0: 32d7 3dbd 7c36 e6bc 4217 03be 9b85 93be
000000d0: 4d9e 1f3f f7a6 e6bd 2505 46bf 0d17 85bd
000000e0: e91f 523d fa0c 153f 9b2c 8d3f 3852 093e
000000f0: b0f4 693e dc6b 93bf abaf 8cbf 4621 e13e
00000100: 01a3 2b3f ec06 0a40 83b4 c33f 0fe7 53bf
00000110: 6b67 f3bf d333 98bf 1c6e a63e 15ec a6be
00000120: 74be 29bd 3283 1dbd 61d6 afbe 76c1 47be
00000130: fb03 f1bc fe6c 1ebf 301d 47bf 898b 893e
00000140: 2b38 3c3f 07ac 1b3f d3f7 0b3f 0885 703e
00000150: 91ed 26bd a03a b5bc 1b81 a53e ccbe 09be
00000160: 483a 0f3e fc56 55bf 8d91 83bf 84fd 69bf
00000170: 2072 dc3d 0960 3d3e fd76 a0be c3d9 b6bb
00000180: 273d a2be 4421 23bf de93 ee3e 0470 823f
00000190: 75b6 7f3e 3573 6a3f 73a2 d9be b01b fe3d
000001a0: c616 da3e 0ffb 053f d793 83bf 7a9e 593d
000001b0: 784c 413e 23e9 78bf 3234 cfbf 05b7 b23d
000001c0: 649e 10bf 9ac4 d2bf 3f81 b1bf 7171 2cbf
000001d0: 8299 8fbe bc6b c1be 21b9 183f 6b52 dcbe
000001e0: 3f2a 82bf 1019 353e 2f33 cebe 57d9 9e3e
000001f0: 5325 143f 1277 5b3e 13e3 9b3e 839e 34bd
00000200: fdaa 48bf 7151 04bd e35e 7dbe 8565 173f
00000210: dcfc 883f e57c 333f 3656 e5be 30a8 0abf
00000220: 2570 14bf cfe3 b53d 98d4 9ebe b6f9 863f
00000230: 6917 963e 6a0b 093f d499 583f bf6e fb3e
00000240: 35bd 033f 8741 973d 98a8 a03e e54d 16bc
00000250: 0148 46bd 3855 d13e a65e 1abf dd81 64bf
00000260: a869 4bbf f92a eebe b92d 33be 692f 8fbf
00000270: dbae 4fbf 9bbc a6bf f6b0 1c3e 0643 033f
00000280: f320 413f 535a 073d df29 b1bd f87d d1bf
00000290: 3450 a1bf 7556 2a3d df46 173e a988 b33d
000002a0: a4af 09bf bf44 50bf 8423 0ebf c57d 12bf
000002b0: 3db7 85be 3af0 8b3e 91c1 78be 5c9d acbe
000002c0: 3eac a4be 9084 423e 4811 32bf 64e4 c93d
000002d0: dcf8 b33d 7631 6fbf 71c4 4cbf 6aa3 c93e
000002e0: dc40 f1be d07c fcbd 1a5d 10bd 261b 9d3f
000002f0: b2dc 79bd 4b44 cbbd b14d 97be 8ccf 85bf
00000300: 25e8 833f 858a d03e 0083 19bf 869c 10be
00000310: 769b 013d e748 0e3c 7642 203e dac2 bdbd
00000320: 208e 68bf 80b9 8fbd 79d1 413e 6b76 b0be
00000330: ef6c 6ebf d2be 843e 8570 15be 7e13 06bf
00000340: aacc f83e 0d6e 753e f367 82bf fc2d dd3e
00000350: 7ff3 b1bf 397f f8bd 29b4 103f ba01 653f
00000360: 50cc 7ab9 13bf e43c f4d7 93be aa6d 2a3e
00000370: 7a9d e2bf b32a 933e 2dcb 4e3f 7821 babe
00000380: a095 1c3f 36d3 6b3f fa3a c7bf 01e3 f3be
00000390: 2743 c83e ee6d 283e b9be 01be fe6b fcbe
000003a0: f388 fa3e dbd0 92be f84b 04bf 530b d5bc
000003b0: 0694 f53d 4579 80bf 6a3b 38be 13f5 a83d
000003c0: b03a 97bf 17d1 153f 7f8f 363e 5c28 a0bd
000003d0: b298 883d 9282 67bd 024b 263e f419 433e
000003e0: f1b0 c7be c181 2fbf 5c64 a73e 822d 6b3e
000003f0: 1a68 123d eb76 293f 2a48 933f 7f69 2e3c
0.57359016 0.69859284 -0.34720978 0.68117 0.70931876 -0.22536452 -0.080540866 -0.04218117
0.032763083 -0.073661365 0.8527593 -0.17563203 -0.78420776 -0.11724039 -0.055859715 -1.8315433
-1.432562 -1.2417691 0.6754699 0.47436526 -0.057462707 0.2311764 -1.3838221 -1.0342473
-0.33971265 1.0769998 0.2376944 0.05537435 1.6665752 0.04114216 -0.17883055 0.46056518
0.2236733 -0.5795696 -0.006383971 0.5118306 0.1796931 0.20155868 0.7482012 0.04144771
-0.5354197 -0.030191492 -0.06315995 -0.0172161 -0.68511516 0.13874179 0.06272903 -0.25286645
-0.046347804 -0.028102152 -0.12801841 -0.2881287 0.6235092 -0.11262315 -0.773516 -0.06498537
0.051299963 0.58222926 1.1029238 0.1341027 0.22847247 -1.1517291 -1.099111 0.43970698
0.670456 2.1566725 1.5289463 -0.8277444 -1.9015936 -1.1890815 0.32505882 -0.3260199
-0.041441396 -0.038455196 -0.34343246 -0.19507393 -0.029420843 -0.6188506 -0.7777891 0.2686427
0.73523206 0.6080937 0.54675025 0.23488247 -0.040753905 -0.022122681 0.32325062 -0.1345169
0.13987076 -0.8333585 -1.0278794 -0.9140246 0.10763955 0.18493666 -0.3134078 -0.0055801584
-0.3168728 -0.63722634 0.4659719 1.0190434 0.24971946 0.9158204 -0.4250675 0.12407625
0.425955 0.5233621 -1.0279492 0.05312965 0.18876827 -0.9723074 -1.6187804 0.087263145
-0.56491685 -1.6466248 -1.3867568 -0.673606 -0.28046805 -0.37777507 0.59657484 -0.4303163
-1.0169142 0.17685342 -0.40273425 0.31025192 0.5786945 0.2143214 0.3044668 -0.04409648
-0.7838591 -0.03230423 -0.24743228 0.5913928 1.0702167 0.7011245 -0.44792336 -0.54162884
-0.5798362 0.08881342 -0.3102157 1.0544956 0.29314736 0.5353304 0.84609723 0.4910793
0.5146058 0.07385545 0.31378627 -0.009173845 -0.048408512 0.4088533 -0.6030067 -0.89260656
-0.79458094 -0.4651716 -0.1749791 -1.1186343 -0.81126183 -1.3026308 0.1530188 0.51274145
0.754409 0.033045124 -0.086505644 -1.6366568 -1.2602601 0.041586358 0.14773129 0.087663
-0.5378363 -0.813549 -0.5552294 -0.5722316 -0.26116362 0.27331716 -0.2429259 -0.33713806
-0.3216266 0.18995881 -0.6955762 0.09858015 0.087877005 -0.93434846 -0.79987246 0.39382488
-0.47119796 -0.123284936 -0.03524504 1.227391 -0.061001487 -0.09925135 -0.2955146 -1.0453963
1.030522 0.40730682 -0.59965515 -0.14122209 0.0316424 0.008684373 0.15650353 -0.092656806
-0.90841866 -0.07017803 0.18927564 -0.34465346 -0.9313497 0.25926834 -0.14593704 -0.5237349
0.48593646 0.23967762 -1.0187973 0.43199146 -1.3902434 -0.12133641 0.565249 0.8945576
-0.0002391797 0.027923143 -0.28875697 0.16643396 -1.7704308 0.28743514 0.8077877 -0.3635366
0.6116581 0.9211916 -1.5564873 -0.47634128 0.39113733 0.16448185 -0.12670411 -0.49301142
0.4893261 -0.2867497 -0.5167842 -0.026006376 0.11991124 -1.0037009 -0.17991415 0.08249869
-1.1814785 0.5852217 0.17828177 -0.07820198 0.06669749 -0.056521006 0.1623955 0.19052869
-0.39002183 -0.68557364 0.32693756 0.22966579 0.03574381 0.6619708 1.1506398 0.010645269

bias f4 [128]
00000000: d4dc c83d 2f7a fcbe f326 13be 43ab 64be
00000010: b1b6 e2bd b425 b4be 6ec8 30bf 3f9d 29be
00000020: 3365 4fbd b34a a1be 8642 b5bd 3784 c5bc
00000030: accb 62bd 0a66 6cbd e50c adbd 7999 d0be
00000040: 4f29 8bbd a9d0 143d d055 8dbe a14f 7dbe
00000050: 0b60 b3bd 564e d7be b50f 44bf 94d8 393d
00000060: f791 0bbd c5b8 d23b 8f34 c0bd 0558 1c3e
00000070: 63a0 78be 2b96 7bbe adb4 97bd f1f4 a8bd
00000080: fda6 26be 07b1 00be 5c35 05bf 6781 aebe
00000090: 52aa f03e 99fc 6fbe 1a9b 35bd 3b89 bdbd
000000a0: ed3b 08bf fa0d 83be d932 babd d5c3 4bbe
000000b0: 31ca 23bf c911 123d 9ae6 58bd 3816 23be
000000c0: 6fc5 f6be 48ea acbd b8b3 9bbd 8c81 1abf
000000d0: d69b 8fbd 8918 ccbc 9deb aebd 5fb7 703e
000000e0: 574d b33e 1251 cc3d b615 a6bd 7f5b afbe
000000f0: f8e0 85be 525f 87bd d125 e5bc 9ad2 34be
00000100: 3528 87bd 952d ffbe 8a83 7fbe c75f f6bd
00000110: 2bbd 59bd 4851 abbe c9cb b4bd 5566 62be
00000120: 15c0 3fbd bffa 31be 4290 ebbe 9a1f 38bd
00000130: 9087 6cbf e42d f43e 328b 93bd 49ed 15bf
00000140: 3328 76bd 0be5 3cbd 144c b1be bb59 81bd
00000150: c43c 37bd 7256 b8be 3178 89be 0999 e7be
00000160: 606a 99bd ca09 87be 1374 aabd 9bd8 00bd
00000170: 9c90 d4bc 8ef3 c4bd 335e 173e 794e 14be
00000180: 92ef bf3e 89e5 68bd cf3d b1bd d699 2bbf
00000190: ea0b 05bf ed4e 00be 45ae 5cbd fc49 4fbe
000001a0: 6cef 07be fa52 bb3d 476b 1dbf de33 62be
000001b0: 9627 27be 6c91 ca3e 95d2 2cbd 6a97 5cbd
000001c0: 5e33 31bd 5fba ddbe b803 8cbb 79c0 96be
000001d0: f615 b5be 810b 01be 3b0e d4bc e34c 85be
000001e0: f363 0fbe d638 00bb a698 13bf b292 a9be
000001f0: 8fce d63d 08c3 29bf 2c4a c7be 7e07 1dbe
0.098077446 -0.4931197 -0.14370327 -0.22330956 -0.11070002 -0.35185015 -0.6905583 -0.16563891
-0.05063362 -0.31502303 -0.08850579 -0.024110897 -0.055370018 -0.0577145 -0.08449725 -0.4074209
-0.06794988 0.036331806 -0.27604532 -0.24737407 -0.08758553 -0.42051953 -0.7658647 0.04537256
-0.03407475 0.0064307177 -0.09385025 0.15267952 -0.24279933 -0.24569003 -0.07407508 -0.08249844
-0.16274638 -0.1256753 -0.52034545 -0.340831 0.47004944 -0.23436202 -0.04433737 -0.0925469
-0.5321644 -0.255966 -0.0909173 -0.19898923 -0.63980395 0.035661492 -0.052954294 -0.15926445
-0.48197505 -0.08443123 -0.07602638 -0.6035392 -0.07012145 -0.024914043 -0.085410334 0.2350745
0.35019943 0.099764004 -0.0810961 -0.34249493 -0.261482 -0.06609978 -0.027972134 -0.17658463
-0.06599466 -0.49839464 -0.24952522 -0.12029987 -0.05315892 -0.3346045 -0.088279314 -0.22109349
-0.046814043 -0.17380808 -0.46008497 -0.044952013 -0.9239435 0.47691262 -0.07204284 -0.58565193
-0.06009693 -0.04611687 -0.34628356 -0.06315943 -0.044735685 -0.36003453 -0.2684951 -0.45233944
-0.074909925 -0.26374656 -0.08322921 -0.03145657 -0.025947861 -0.09616767 0.14782028 -0.1448306
0.37487465 -0.056859527 -0.08654367 -0.6703161 -0.51971304 -0.12530108 -0.053877134 -0.20243067
-0.13274926 0.09146686 -0.6149182 -0.22090098 -0.16323695 0.39564073 -0.042193014 -0.053855337
-0.04326188 -0.43306252 -0.0042729042 -0.2944372 -0.35368317 -0.12602045 -0.025885692 -0.26035222
-0.14002971 -0.0019565127 -0.576548 -0.33119732 0.10488617 -0.6631322 -0.38923776 -0.1533489

weight f4 [10, 128]
00000000: ce21 2ebf 5682 cdbe b8ff 2fbf 972e 5bbd
00000010: 89a5 ca3b 17d8 d43d ed19 92bc 5793 063f
00000020: b242 373d bb7c 813c c1be 213e cf4b 7cbf
00000030: 9a6d 43bc 5a3d 063d a6d3 bfbd 4788 f7bd
00000040: a1a4 d039 7d06 28bf c2e5 9a3e a3f7 c73e
00000050: a5fb a9bd 7f86 cf3e c9d5 a03e ff18 14bf
00000060: 6827 46be 1a73 0ebf cf1e 5f3b 209a 0d3e
00000070: 251d 02be 3b9d 1cbf 2674 38bc 6c48 a4bd
00000080: 8295 c7bd 5e65 d7be a89a ca3d b609 5fbe
00000090: 2616 c0be e4f1 0d3e 727a 04be 4286 ccbd
000000a0: 6cd6 b53e 02fb 08bf 7365 723d 5632 88be
000000b0: 3068 17bc c6e2 e6be 022a b33c 0968 fc3d
000000c0: 3d46 87bd 5488 9e3d a060 043c 7316 283e
000000d0: 5c65 33bd 67ce 3bbc 4846 05bf e9c1 52bf
000000e0: 2129 203f a196 c43e aed8 093f d3fe 9e3d
000000f0: 0afd b2be 5b97 3c3d 5740 dcbc e5f8 8dbe
00000100: 2495 26bd fdb1 16be 1583 ba3e 4750 83bd
00000110: 8aca 073d a2c8 903e 2199 e4be 0ec6 4cbf
00000120: 7d31 c9bc e46e 853e 47a9 213d b24b 81bc
00000130: 0bd0 9bbd 66ad a9bf bf2d 12bd 369d 3ebe
00000140: 3457 7cbe 561e 663d 43c7 fe3d 124b 833c
00000150: 3eb5 bd36 fd92 1cbf 4b7a 4d3f cae3 74bd
00000160: f0a6 883c 300e b33e fd93 24bc ab4d 97bc
00000170: 9f98 313c 694d 48bc d2c9 1c3e 2ec5 f13c
00000180: 947b 9d3e c92b 593d 4d6b ce3d b030 f53c
00000190: 428b ed3e 0bf8 0dbf b6d0 46bb b91c 19be
000001a0: c8b4 923e d3a6 c63e 81fc 96be cb51 2bbc
000001b0: 5bae 05be 0942 bbbe a4ba 193e 0350 ed3c
000001c0: c887 203d 0adf 0fbe bc22 e6be 4a01 5abd
000001d0: 1495 c6be 69b4 4b3c 7330 b5bd 1039 4dbf
000001e0: 7267 123e 0811 d4be 4912 563e 9917 3cbf
000001f0: 1485 0dbe 311d 96be d436 01bf e2fa c5bc
00000200: 2798 dbbe 368d 0bbf ee77 123e abad ccbe
00000210: 75b0 c6bd 2452 34bf 051f 703c f504 c63e
00000220: 0d4e 653d 74f7 1a3d c648 acbe 1eea 3dbe
00000230: f2da 02be 99f8 21bc 3faf f33d 879c 4fbf
00000240: a6c4 34b9 797b ba3e e4d1 37bd 61d4 24bf
00000250: cf24 f03c b0f0 89be 8b79 f1be 722f cbbe
00000260: 7401 8c3e 8dbb 223e bf69 cdbe bea5 ab3d
00000270: 6b69 493e 808e c6be 238e 803c 54dc 9ebd
00000280: d418 a93e 7116 ad3e 4c96 a7be e559 71bc
00000290: 0229 893f a5fd 19bf 79f7 c83c 5c28 953d
000002a0: 838e ecbe 4273 54bf 0631 e6bc 4103 4e3e
000002b0: 79dd 0fbf aef9 c03e e481 853c fe51 ce3d
000002c0: 693b dcbd a9c7 4b3b d4da 973b a92c 803e
000002d0: 7550 9f3c ce03 0dbe 7056 fbbe 9ccd 993e
000002e0: e21b 043f 1abe 70be b588 293b 9ad6 72bd
000002f0: 0424 42bf b153 27bd 3a3b 553d b269 a63d
00000300: 1a3a 643d 78bf dabe 3898 34be 7f98 883d
00000310: 8c8b 7c3c 3dfe 5cbc 788f d03d 8d72 92be
00000320: 6b00 113d 4492 1cbf cde8 d4bd 98ef e63c
00000330: 35be 0fbf bd44 a23d a12d 18bd 10a3 43be
00000340: 7759 e9bc 0fc0 233d dd3f 47bf 0710 ffbd
00000350: ba5e 5d3c 4a58 70be 54dc f7be c11d 9cbf
00000360: 8937 26bc 7a0a b8bd 71be 87bd 2c81 96bd
00000370: ca9b 7abd afe0 dabd a4e8 1bbe 4fb1 99bd
00000380: 9ab8 1c3f 7490 4c3c 8d81 eabd e79f f7be
00000390: b5a2 873e 94c5 463e 22f4 9cbd d53e a8be
000003a0: f852 13bf e386 0ebf 191f 913e a89a a23e
000003b0: 233b 2c3c 53ed ea3e 0343 a23c a970 4a3b
000003c0: a9cb 333c b68e 7dbd 7fd7 003f 01e4 adbe
000003d0: 3125 9cbd 2ca7 e4b9 186e 583c f329 033c
000003e0: 29d6 bd3c d81d f93c 10ef 51be fd56 5fbd
000003f0: 895c 8e3e 8bed 043f 7135 003f d91b 4f3e
-0.6802033 -0.401385 -0.6874957 -0.05351123 0.006184284 0.10392778 -0.017834628 0.5256857
0.04474134 0.015806546 0.15795423 -0.98553175 -0.0119279865 0.032773353 -0.093665406 -0.1208654
0.0003979551 -0.656349 0.30253416 0.3905612 -0.082999505 0.405323 0.31413105 -0.5785064
-0.1935097 -0.5564438 0.0034045463 0.13828325 -0.1270643 -0.61177415 -0.011258161 -0.08021626
-0.09745313 -0.42069525 0.098927796 -0.21781048 -0.37516898 0.13861805 -0.12937334 -0.09986545
0.35515153 -0.5350801 0.05917878 -0.26600903 -0.009241149 -0.4509489 0.021870617 0.12324531
-0.06605194 0.07740846 0.008079678 0.16414814 -0.043797836 -0.011462784 -0.52060366 -0.82327133
0.6256276 0.3839617 0.5384625 0.077634476 -0.34958678 0.04604278 -0.026886148 -0.27728954
-0.040669575 -0.14716335 0.36428133 -0.06411796 0.03315214 0.2827807 -0.44648078 -0.7998971
-0.02455973 0.26061165 0.039468076 -0.015783165 -0.076080404 -1.3256042 -0.035688158 -0.18614659
-0.2464264 0.056181274 0.1244035 0.016027007 5.6537383e-06 -0.61161786 0.8026473 -0.05978755
0.016681165 0.34971762 -0.010045049 -0.018469652 0.01083961 -0.012225487 0.15311363 0.029512968
0.30758345 0.053020272 0.1007906 0.029930443 0.46395308 -0.5545661 -0.0030336804 -0.14952363
0.2865355 0.38799152 -0.2948952 -0.010456513 -0.13054793 -0.36573818 0.15012604 0.028968817
0.03919199 -0.14049926 -0.44948375 -0.053223886 -0.38785613 0.01243315 -0.088471316 -0.80165195
0.14297274 -0.41419244 0.20905413 -0.7347351 -0.13820297 -0.29319146 -0.50474286 -0.024167482
-0.4288952 -0.54512346 0.14303562 -0.39976248 -0.09701625 -0.70437837 0.014655833 0.38675657
0.05598264 0.037833646 -0.33649272 -0.1854634 -0.12778834 -0.00988593 0.1189866 -0.81098217
-0.00017239395 0.36422327 -0.0448779 -0.64386564 0.029314427 -0.26941442 -0.47163042 -0.39684635
0.2734486 0.15891857 -0.4011974 0.08381222 0.1966912 -0.38780594 0.015692776 -0.07756868
0.33026755 0.33806184 -0.32731855 -0.014730905 1.071564 -0.60152656 0.024532067 0.072830886
-0.46202478 -0.8298837 -0.028099548 0.20118429 -0.56197315 0.3769049 0.016297288 0.100742325
-0.10753519 0.0031094349 0.0046342406 0.25034073 0.019447545 -0.13770983 -0.49089384 0.3003968
0.51605046 -0.23510018 0.0025868837 -0.05928669 -0.75836205 -0.0408513 0.052058436 0.081256285
0.055719472 -0.42724204 -0.17636192 0.06669711 0.01541413 -0.0134883495 0.101836145 -0.2860302
0.03540079 -0.61160684 -0.10395966 0.02819042 -0.5614961 0.07923267 -0.03715289 -0.19105172
-0.028485043 0.039978083 -0.7783182 -0.12454229 0.013511354 -0.2347118 -0.48410285 -1.219658
-0.010145077 -0.08986373 -0.06628121 -0.07348856 -0.06118373 -0.10687386 -0.15225464 -0.07504522
0.6121918 0.012485612 -0.11450491 -0.48364183 0.26491323 0.19411308 -0.07663752 -0.32860437
-0.57548475 -0.5567457 0.28344038 0.31758618 0.010512146 0.4588419 0.019807344 0.0030889905
0.010973849 -0.061903678 0.5032882 -0.33963016 -0.07624281 -0.00043612102 0.013209842 0.008005607
0.023173409 0.030409738 -0.20501351 -0.054526318 0.27804974 0.5192496 0.50081545 0.20225467

bias f4 [10]
00000000: ac77 48be acbc 1b3d b4e2 d3bd 5ef8 c83d
00000010: 3cea 973d f0a6 3fbe 807a cebe b8b2 23bd
00000020: 26e5 0c3f bb57 0b3c
-0.19576901 0.03802173 -0.103459746 0.09812997 0.074177235 -0.18716025 -0.40327835 -0.03996536
0.5503715 0.008504803
